output/Quadrotor-run11-Baseline-Trained/actor.pkl (torch, 283003 bytes, 8 tensors)

linear1.weight f4 [256, 12]
1.1681571 -1.5576879 0.2385373 -0.14470385 -0.21190484 -0.007145847 0.83796763 -0.3055933
2.580384 -0.59400684 0.3341228 0.522791 0.028972924 -0.090052254 0.10668206 -0.10005976
-0.53930664 -0.0039200946 -0.322393 -0.13647087 -0.0017954924 -0.72666585 -0.03159703 0.0040849242
-0.29144636 0.6082972 -0.3260036 -0.11818386 0.23291537 -0.01374558 -0.09024623 -1.264752
-0.84446275 -0.29981634 -0.18012895 -0.0086779455 0.93213505 -0.7210415 -0.5971905 -0.24734153
-1.1945889 0.005855374 -0.4090576 -0.53609264 0.94887507 0.41604784 -0.87033623 0.9369642
-0.3412975 -1.939848 0.79487985 -0.09352087 -0.46637622 -0.0014649802 0.5064505 -1.8593466
0.24577557 -0.15539908 0.011317484 0.122990325 0.3248157 0.1836136 0.6761464 0.32202724
0.4059615 0.036225278 0.059913006 0.112938054 -0.7634917 -0.0504027 -0.067692444 0.00064953393
0.15338951 -0.32734314 -0.7071824 0.021633776 -0.0615263 0.009878093 -0.023970837 -1.2033625
0.81368077 -0.2110278 -0.07187196 -0.032585833 -1.3940756 -0.98192996 1.171255 -1.6251543
0.4243204 0.03739111 0.6848739 0.31128758 0.57837415 0.9710349 0.14140442 0.001004592
-0.22824214 0.023425864 -1.5386307 0.015077115 0.022652952 -0.03861488 0.07012087 -0.90235955
1.0614979 -0.5331817 -0.2532746 -0.0034529094 -0.73655564 1.3001747 0.42924726 -0.09726449
1.3059895 0.02088746 -0.42031386 -0.0713809 -0.9549356 0.72325563 -0.5168349 -0.049918782
0.5178423 -1.4589411 -0.12032027 -0.12950927 -0.38724393 -0.017798461 -0.03591408 -0.80201226
1.0331334 -0.14370802 -0.0060863043 0.02035529 -1.5912027 -1.6744792 -0.31284368 -0.146955
-0.10502373 -0.0028880748 0.44831017 1.0700967 1.8531615 -0.527269 0.5036903 0.23261501
0.12997238 -0.72190076 -0.012584796 -0.05841072 -0.17130591 0.0031797276 0.017161945 -0.43638024
0.30220342 -0.31225434 -0.16725571 0.034083 -0.17009334 -0.27587768 1.392788 0.088409655
-0.013196538 -0.004397191 0.18276885 -1.9647248 0.87173617 -1.2381902 -0.11416182 0.11140818
0.16923538 -0.62919635 -0.19848682 0.08332531 -0.29789528 -0.0037720546 0.35361302 -0.57257265
0.8618314 -0.3370859 -0.07389619 0.2794189 0.09755785 -0.3784464 0.012861304 -0.024817586
-0.1814529 -0.008221603 0.021116722 -0.41851753 0.25718957 -0.15749714 -0.001181562 0.021928214
0.854569 -1.0087588 -0.39008796 -0.18849996 -0.8228997 0.038943954 -0.13225631 0.046414535
0.7018302 -0.8235196 -0.35311303 -0.14136294 0.45482498 -0.8278904 -0.7304345 -0.10853426
-0.106572405 -0.0006026046 0.1258474 -0.97789574 0.42037603 -0.284466 -0.10698398 -0.019074723
-1.4218711 -0.5685694 -0.47837988 -0.93955576 -1.325521 -0.020173728 1.1496189 0.09038666
0.26114947 0.75224835 1.3770717 -0.011223445 0.52760303 -0.8719195 -0.067052916 -0.20612605
-0.59197295 0.0053049237 0.30770633 -0.577777 0.36829787 -0.23710364 0.13318603 -0.053751934
-0.043440238 -0.41465235 -0.3578078 -0.028285211 -0.17718275 -0.0057685873 0.20712243 -0.664809
0.3869611 -0.28420156 -0.12522885 -0.016724158 0.33386633 -0.7343476 0.5045482 -0.015035561
00000000: 2c86 953f 5162 c7bf 1f43 743e 3f2d 14be
00000010: 95fd 58be b627 eabb 0c85 563f ba76 9cbe
00000020: 0325 2540 d510 18bf 2512 ab3e a2d5 053f
00000030: a058 ed3c 516d b8bd 207c da3d 22ec ccbd
00000040: 0010 0abf 2374 80bb b210 a5be 05bf 0bbe
00000050: ba56 ebba c606 3abf e36b 01bd d4da 853b
00000060: 7538 95be 5eb9 1b3f f2e9 a6be 610a f2bd
00000070: 5e81 6e3e 2435 61bc 04d3 b8bd 65e3 a1bf
00000080: b62e 58bf 8781 99be b973 38be f12d 0ebc
00000090: 67a0 6e3f 2d96 38bf 7ae1 18bf 1947 7dbe
000000a0: 4ae8 98bf 70de bf3b ff6f d1be 5e3d 09bf
000000b0: 7ae9 723f 3904 d53e 5bce 5ebf e3dc 6f3f
000000c0: 8cbe aebe f04c f8bf 3f7d 4b3f df87 bfbd
000000d0: ddc8 eebe 9404 c0ba bda6 013f 12ff edbf
000000e0: 97ac 7b3e f020 1fbe f86c 393c 5ae2 fb3d
000000f0: 3e4e a63e 3405 3c3e ee17 2d3f c1e0 a43e
00000100: 30da cf3e f560 143d 5767 753d 114c e73d
00000110: 3174 43bf 1073 4ebd 56a2 8abd 7c45 2a3a
00000120: 2412 1d3e 8599 a7be e809 35bf 5139 b13c
00000130: 0003 7cbd bad7 213c 7d5e c4bc c807 9abf
00000140: 624d 503f ac17 58be 9b31 93bd b978 05bd
00000150: 1271 b2bf c35f 7bbf afeb 953f 0e05 d0bf
00000160: 8640 d93e 6c27 193d e553 2f3f 1661 9f3e
00000170: 5410 143f be95 783f 52cc 103e 84ac 833a
00000180: 4fb8 69be 99e7 bf3c daf1 c4bf 0106 773c
00000190: af92 b93c a32a 1ebd 889b 8f3d 0901 67bf
000001a0: 2adf 873f 997e 08bf 35ad 81be 354a 62bb
000001b0: e98e 3cbf 206c a63f 4cc6 db3e 9b32 c7bd
000001c0: aa2a a73f 2e1c ab3c 6133 d7be 2630 92bd
000001d0: a976 74bf 4827 393f 4b4f 04bf a377 4cbd
000001e0: 5091 043f 95be babf 796a f6bd 149e 04be
000001f0: d644 c6be 14ce 91bc a41a 13bd ad50 4dbf
00000200: b73d 843f 3228 13be 9f6f c7bb 23c0 a63c
00000210: 88ac cbbf 5655 d6bf 0c2d a0be 5f7b 16be
00000220: ae16 d7bd db45 3dbb e988 e53e eef8 883f
00000230: 6534 ed3f 1afb 06bf d9f1 003f a132 6e3e
00000240: 7b17 053e 7dce 38bf 7630 4ebc 1440 6fbd
00000250: d16a 2fbe fa62 503b 3597 8c3c 3b6d dfbe
00000260: 68ba 9a3e cddf 9fbe 1545 2bbe 9e9a 0b3d
00000270: f32c 2ebe d73f 8dbe e146 b23f 1f10 b53d
00000280: 4b36 58bc 5016 90bb c227 3b3e 1a7c fbbf
00000290: 1a2a 5f3f 047d 9ebf accd e9bd f929 e43d
000002a0: 0a4c 2d3e 0313 21bf 2140 4bbe 76a6 aa3d
000002b0: bb85 98be 9334 77bb c40c b53e 1f94 12bf
000002c0: fca0 5c3f 8696 acbe e356 97bd fe0f 8f3e
000002d0: 69cc c73d bac3 c1be 38b8 523c 404e cbbc
000002e0: cace 39be e7b3 06bc fafc ac3c ee47 d6be
000002f0: 5aae 833e ee46 21be a4de 9aba cca2 b33c
00000300: 09c5 5a3f 021f 81bf 9cb9 c7be 2206 41be
00000310: 8ea9 52bf b283 1f3d 336e 07be 2b1d 3e3d
00000320: 25ab 333f 2ed2 52bf 3bcb b4be 72c1 10be
00000330: d2de e83e a0f0 53bf c1fd 3abf 3647 debd
00000340: a242 dabd 1cf8 1dba 24de 003e 6057 7abf
00000350: 873b d73e 87a5 91be 6b1a dbbd 9842 9cbc
00000360: dfff b5bf c48d 11bf 35ee f4be ba86 70bf
00000370: acaa a9bf 6043 a5bc b626 933f a41c b93d
00000380: 62b5 853e 5993 403f e343 b03f 8ae2 37bc
00000390: fe10 073f 1e36 5fbf 0a53 89bd b512 53be
000003a0: 8a8b 17bf edd4 ad3b af8b 9d3e 32e9 13bf
000003b0: 8a91 bc3e 4ccb 72be eb61 083e fd2a 5cbd
000003c0: 64ee 31bd 504d d4be 9532 b7be 63b6 e7bc
000003d0: 656f 35be 6b06 bdbb e717 543e ec30 2abf
000003e0: c41f c63e de82 91be fe3b 00be 1a01 89bc
000003f0: 87f0 aa3e 34fe 3bbf 122a 013f b757 76bc

linear1.bias f4 [256]
-1.2292987 -0.65723675 -0.50345874 -2.1307416 -0.9006208 -0.098082356 -0.97459745 -0.53644687
-1.0327185 -1.2707715 -0.8197584 -0.04500366 -0.2550895 -1.322304 -0.98331213 -0.3101325
-1.1753889 -0.7795127 1.2141541 -0.8013671 -0.67972267 -0.7613701 -1.4796427 -1.0734301
-0.8911972 -0.25282302 -1.1262387 -1.0328711 -1.1197519 -2.398782 -1.5111419 -1.4715041
-2.1876588 0.10460781 -1.3076552 -0.89341414 -0.47203317 -1.5284312 -1.3082328 -1.5714885
1.0656401 -1.6036813 -1.421355 -1.5034714 -1.3675565 -1.0825065 -0.7174723 -0.8348075
-1.2655853 -1.8331826 0.5672951 -2.228138 -0.2238486 0.16316237 -0.83717257 -0.6109902
-1.1879942 -0.25347236 -1.9569002 -1.3570838 -0.97735316 -0.66213477 -1.0637835 -1.2601856
-1.0513693 -1.6624067 -1.0239098 -1.0718067 -0.72463566 -0.817252 -1.0901625 -0.92201453
-0.89232296 -0.78178674 0.475468 -0.6085266 -0.5730834 -2.220721 -0.7495633 -0.8352763
-0.64285153 -1.9778376 -0.34770063 -1.5272096 -1.468271 -0.634194 -1.7688954 -0.84444267
-0.17464243 0.18488221 0.44669348 -2.2550654 -1.437478 -1.4528291 0.17677608 -0.7715543
-1.4537922 0.41922393 -1.1485227 -1.446568 -0.87110925 -0.75015384 -0.3270236 -1.4195784
-0.33438334 -0.6133506 -0.7833586 -0.81527084 -1.1591641 -1.183588 -2.3482544 -0.48190114
-0.733543 -0.98467815 -1.4006432 -0.89019513 -0.9026497 -0.6513635 -0.8573509 -0.7172473
-0.9898093 -1.228047 -0.9670974 -1.147035 -0.76931626 -1.090091 -1.8933017 -1.2466161
-1.2525816 0.25807208 -0.6269409 -0.995536 -0.2548408 -1.3232678 -0.42753124 -0.31768113
-1.5249221 -0.7272047 -0.8527906 1.1554781 -1.8698771 -1.1015997 -0.51510555 -1.2563299
-0.55404705 -1.2381961 -0.94498354 -0.5257837 -0.29859033 -1.4851179 -0.95428634 -0.92183113
-0.4046256 -1.100168 0.8390675 -0.5331429 -1.5644536 -1.0476023 -1.0329002 -0.021126002
-0.37019333 -0.69920254 -0.7528958 -0.3142808 -1.0392739 -0.69953203 -0.49797782 -0.74332285
0.30338532 -1.5673056 -1.0008926 -1.6059402 0.13144092 -0.8824916 -0.54855 -1.155409
-0.75532037 -1.0945013 -1.0290383 -1.6181144 -1.8754683 -1.0686334 -1.1247197 -1.0089998
-0.20443134 -1.1555376 -0.5292558 -0.3076616 -0.39319503 -1.3801987 -0.57285666 -0.7203325
-1.3097575 -1.0397973 -0.71086895 -1.4043393 -0.3611426 -1.076856 -1.3417411 -1.474291
-1.7615726 -1.3093867 -0.97096807 0.29343918 -1.3037505 -0.50986874 -1.1124039 -1.397625
-0.81254655 -0.80661315 0.17637436 -1.878288 -1.1880789 -0.6963362 -1.551786 0.055419847
-1.1165214 -1.2418722 -1.6657122 -1.2450457 -2.165762 -1.0028852 -1.2747277 -1.3359021
-0.45131698 -1.1240002 -0.24272785 -0.99060553 -1.384593 -1.0958554 -1.1382965 0.037494905
-1.6483824 -0.7176863 -1.5592868 0.25049838 -0.58639604 -0.86887616 -0.79464287 0.048028402
-1.1632925 -0.932219 -0.92588246 -1.9559785 -0.8660983 -1.0416465 -1.1502173 -1.6043887
-0.22857518 0.7280886 -0.18461545 -0.35436416 -0.15123329 -1.1191353 -1.034318 -1.591611
00000000: a959 9dbf ab40 28bf ace2 00bf 125e 08c0
00000010: 168f 66bf 67df c8bd 387f 79bf 9554 09bf
00000020: 1f30 84bf a4a8 a2bf b0db 51bf c255 38bd
00000030: 179b 82be 4241 a9bf 58ba 7bbf b0c9 9ebe
00000040: 2573 96bf 258e 47bf 6769 9b3f 6526 4dbf
00000050: 4e02 2ebf 27e9 42bf ef64 bdbf 2866 89bf
00000060: 8025 64bf 0572 81be 9728 90bf 1f35 84bf
00000070: 0854 8fbf a585 19c0 196d c1bf 3f5a bcbf
00000080: 9a02 0cc0 9f3c d63d 3f61 a7bf cab6 64bf
00000090: 55ae f1be a2a3 c3bf 2c74 a7bf 8926 c9bf
000000a0: e566 883f 6e45 cdbf f6ee b5bf c071 c0bf
000000b0: 170c afbf 938f 8abf 44ac 37bf f2b5 55bf
000000c0: b3fe a1bf baa5 eabf 403a 113f d099 0ec0
000000d0: 9138 65be 0914 273e f150 56bf db69 1cbf
000000e0: 3210 98bf 21c7 81be b57b fabf ecb4 adbf
000000f0: d133 7abf aa81 29bf 0f2a 88bf c34d a1bf
00000100: 4593 86bf bec9 d4bf 7a0f 83bf f630 89bf
00000110: b981 39bf 6d37 51bf 728a 8bbf 2509 6cbf
00000120: 476f 64bf 2d23 48bf 8b70 f33e 66c8 1bbf
00000130: 98b5 12bf 4b20 0ec0 61e3 3fbf abd4 55bf
00000140: eb91 24bf c829 fdbf d105 b2be 9b7b c3bf
00000150: 4ef0 bbbf 8a5a 22bf 2a6b e2bf 652d 58bf
00000160: 77d5 32be c351 3d3e 02b5 e43e fe52 10c0
00000170: 47ff b7bf 4ef6 b9bf ca04 353e 9584 45bf
00000180: dd15 babf 85a4 d63e cb02 93bf 2429 b9bf
00000190: 0401 5fbf 150a 40bf a36f a7be bfb4 b5bf
000001a0: 4b34 abbe 8b04 1dbf 308a 48bf 97b5 50bf
000001b0: 7d5f 94bf d07f 97bf cd49 16c0 bfbb f6be
000001c0: 79c9 3bbf de13 7cbf 4748 b3bf d4e3 63bf
000001d0: 0d14 67bf c2bf 26bf 597b 5bbf 859d 37bf
000001e0: 2464 7dbf a530 9dbf b293 77bf 0bd2 92bf
000001f0: e9f1 44bf 1a88 8bbf b657 f2bf 1e91 9fbf
00000200: 9854 a0bf 0622 843e 337f 20bf 73db 7ebf
00000210: 7e7a 82be d760 a9bf 60e5 dabe 1aa7 a2be
00000220: a630 c3bf 162a 3abf 7c50 5abf b5e6 933f
00000230: 2258 efbf 3801 8dbf f5dd 03bf 6bcf a0bf
00000240: 07d6 0dbf 367d 9ebf 71ea 71bf c399 06bf
00000250: d5e0 98be 5818 bebf 1c4c 74bf 20fd 6bbf
00000260: 162b cfbe 4ed2 8cbf 21cd 563f 0e7c 08bf
00000270: 0440 c8bf d517 86bf 1336 84bf 7010 adbc
00000280: fb89 bdbe f0fe 32bf c7bd 40bf 6ae9 a0be
00000290: ed06 85bf 8814 33bf f3f6 febe 684a 3ebf
000002a0: 5255 9b3e 789d c8bf 401d 80bf 738f cdbf
000002b0: 7398 063e f8ea 61bf c66d 0cbf 71e4 93bf
000002c0: ad5c 41bf 9e18 8cbf 87b7 83bf 5f1e cfbf
000002d0: 580f f0bf fbc8 88bf d1f6 8fbf e826 81bf
000002e0: 7356 51be a8e8 93bf 4f7d 07bf d285 9dbe
000002f0: dc50 c9be 5aaa b0bf bca6 12bf b667 38bf
00000300: 22a6 a7bf 1418 85bf 82fb 35bf 64c1 b3bf
00000310: afe7 b8be 6bd6 89bf 2cbe abbf 91b5 bcbf
00000320: 367b e1bf fc99 a7bf 5d91 78bf a93d 963e
00000330: 4ce1 a6bf c286 02bf 4063 8ebf 60e5 b2bf
00000340: 0d03 50bf 337e 4ebf 7b9b 343e be6b f0bf
00000350: f812 98bf 1743 32bf eca0 c6bf ecff 623d
00000360: 2cea 8ebf abf5 9ebf 0f36 d5bf a85d 9fbf
00000370: d89b 0ac0 8b5e 80bf 472a a3bf d7fe aabf
00000380: 0513 e7be 3ddf 8fbf a68d 78be 5398 7dbf
00000390: 583a b1bf fd44 8cbf b3b3 91bf 4294 193d
000003a0: 32fe d2bf 4aba 37bf b696 c7bf 5341 803e
000003b0: 0d1e 16bf ab6e 5ebf b76d 4bbf 6eb9 443d
000003c0: c5e6 94bf e8a5 6ebf a206 6dbf 815d fabf
000003d0: 9eb8 5dbf ac54 85bf 523a 93bf 9c5c cdbf
000003e0: 9d0f 6abe 0464 3a3f d50b 3dbe 386f b5be
000003f0: e6dc 1abe d33f 8fbf 8864 84bf e9b9 cbbf

linear2.weight f4 [256, 256]
-0.022698184 0.6582594 1.0138649 -0.08800972 0.8584737 -0.08430445 -0.12944297 0.10625506
0.3514194 -2.6657236 -0.033546317 -2.902491 -0.013220313 0.6993325 -0.22910714 0.0055896165
-1.9693532 -0.33547673 0.4197191 0.042281218 -0.24947548 -0.49933574 0.1107864 -0.26665184
0.862694 0.09229825 -0.6158193 0.0071386425 0.24870938 0.010392339 0.13310207 -1.4362009
-0.36850113 -0.052472573 -0.12910548 -0.0943187 -0.035891823 -0.39184555 0.5568101 1.8325577
-0.118968554 0.05719875 0.098450065 -0.8047523 0.18446209 1.1614348 0.15918882 -0.12760085
-0.9218691 -0.08832859 0.45911935 0.11856503 -0.08541066 0.24497753 -0.086483926 0.25264865
-0.9823853 -0.2584489 0.016550537 -0.6659134 0.33362064 0.3138559 0.22864334 0.48274806
0.112772845 0.16103156 -0.59611005 0.5094593 0.26707864 -0.3261885 0.18544334 -0.4052491
-0.011693142 -0.2643856 0.13220254 -0.6736819 -0.22496943 0.3068903 1.1873924 0.33470848
0.2371003 -0.42126253 -0.16366711 -0.40322202 -0.9344599 0.2255955 0.24452691 0.025565408
-0.5608437 -0.24447094 -1.1452408 -0.13344851 0.0957327 -0.13413224 -0.6875893 -0.0007785864
0.50234246 1.4382206 -0.5949455 0.48004946 0.09259166 -0.17667691 0.034986313 -0.15439516
-0.1357891 -0.06926315 -0.11719083 0.33598125 -0.18982227 -0.049476948 -0.16557956 0.07997678
-0.4204148 -0.63722396 0.19008408 -0.33551726 -0.8899115 0.5793367 -0.34095758 -0.012344878
0.3114434 -0.29030663 0.23120344 0.30324885 0.7830861 0.10229212 1.0909996 0.30256483
0.55469114 -1.024419 -0.16485576 0.5357993 -2.5800745 0.25558794 0.042613477 -0.07829546
-0.21076806 0.017854502 0.49562588 -0.09817309 -1.1862818 -0.06074311 -0.10920103 -0.4347551
0.13506642 0.36386174 0.004471805 0.9934429 -0.098120086 1.6012543 -0.4028631 0.112821646
-0.16721876 0.74466 0.11912538 -0.13986975 -0.43449882 0.36779615 0.5750903 -1.7614655
0.4292596 -0.23087023 -0.055431597 -0.3169557 0.27936524 0.047062058 -0.86784554 -1.2484004
-1.3730855 -0.17139114 -0.036066968 -0.28170544 0.03627332 -0.98094976 0.22974175 -0.5022083
-0.03668415 -0.2255949 0.17596552 -0.48294187 -0.20329368 -0.08997245 -1.4772847 1.3095914
-0.18605436 -0.2902247 0.07243525 -0.37083295 -0.33343312 -0.055260543 -0.06956881 0.6930944
0.50479573 0.6779357 0.7793429 -0.33556762 -0.06521848 0.5767735 0.33545098 0.13669217
-0.6693126 0.6543377 0.48331782 0.17161351 -0.032821294 -0.063006565 0.74206734 -0.11496097
0.40169615 -0.117859356 0.40203106 0.245305 -0.31867343 -0.112092584 -1.8810903 0.32871622
0.7167146 0.5943688 1.0467066 -0.101569735 -1.6349301 -0.13794756 0.192787 1.10442
-0.045164376 0.7036591 0.19139822 -0.19364315 -0.86503017 -0.002840266 -3.452935 -2.050143
0.084547654 0.042973444 -0.382677 0.37288895 -0.30966446 -0.12928875 -0.2852004 -1.369883
0.13557753 0.3262618 -0.060745735 -0.20602678 -0.1324942 -2.0470998 0.14630297 0.30057955
0.5384439 -0.3312573 1.0409727 0.101254724 0.34732968 -0.959131 -0.24622186 0.6235127
00000000: 8bf1 b9bc b083 283f 53c6 813f 713e b4bd
00000010: efc4 5b3f d0a7 acbd b38c 04be 419c d93d
00000020: 3eed b33e 379b 2ac0 dd67 09bd 6ac2 39c0
00000030: 039a 58bc 7407 333f 109b 6abe 1a29 b73b
00000040: c413 fcbf 9bc3 abbe 6ce5 d63e 122f 2d3d
00000050: 8076 7fbe efa8 ffbe fbe3 e23d 9786 88be
00000060: 84d9 5c3f dd06 bd3d 55a6 1dbf 46eb e93b
00000070: acad 7e3e a144 2a3c e94b 083e 6ed5 b7bf
00000080: 2eac bcbe 7bed 56bd 3a34 04be 2a2a c1bd
00000090: 4e03 13bd fb9f c8be 1b8b 0e3f 4091 ea3f
000000a0: c9a5 f3bd 3d49 6a3d 30a0 c93d 3f04 4ebf
000000b0: a1e3 3c3e e5a9 943f 6502 233e cca9 02be
000000c0: 9dff 6bbf 9fe5 b4bd b111 eb3e 39d2 f23d
000000d0: c9eb aebd 64db 7a3e 7c1e b1bd 2a5b 813e
000000e0: 9a7d 7bbf 6a53 84be fe94 873c 4d79 2abf
000000f0: 53d0 aa3e b8b1 a03e 7b21 6a3e c12a f73e
00000100: 73f5 e63d 75e5 243e ab9a 18bf ed6b 023f
00000110: 88be 883e 2e02 a7be dce4 3d3e cf7c cfbe
00000120: 9894 3fbc 8d5d 87be 1a60 073e 6b76 2cbf
00000130: 635e 66be ba20 9d3e 79fc 973f e95e ab3e
00000140: 6cca 723e b9af d7be 5a98 27be 1e73 cebe
00000150: c438 6fbf 8202 673e 4365 7a3e 8c6e d13c
00000160: 7493 0fbf 9756 7abe 4097 92bf baa6 08be
00000170: 810f c43d f659 09be da05 30bf 0d1a 4cba
00000180: 8499 003f 9d17 b83f 594e 18bf 0bc9 f53e
00000190: b2a0 bd3d cbea 34be cf4d 0f3d c419 1ebe
000001a0: 4c0c 0bbe d7d9 8dbd bf01 f0bd bc05 ac3e
000001b0: c560 42be 57a8 4abd b08d 29be deca a33d
000001c0: 9c40 d7be 1c21 23bf 67a5 423e ebc8 abbe
000001d0: 3dd1 63bf 694f 143f fe91 aebe 2c42 4abc
000001e0: 8275 9f3e 12a3 94be 98c0 6c3e 6f43 9b3e
000001f0: 5578 483f 887e d13d e0a5 8b3f c7e9 9a3e
00000200: 3d00 0e3f 2920 83bf f3cf 28be 252a 093f
00000210: f11f 25c0 6cdc 823e 788b 2e3d 5f59 a0bd
00000220: 95d3 57be 9b43 923c adc2 fd3e f90e c9bd
00000230: 15d8 97bf c4cd 78bd caa4 dfbd 3898 debe
00000240: da4e 0a3e 164c ba3e 3888 923b 4652 7e3f
00000250: 2ff3 c8bd e7f5 cc3f 1244 cebe 090f e73d
00000260: 653b 2bbe 0aa2 3e3f 02f8 f33d 043a 0fbe
00000270: a176 debe c74f bc3e 1e39 133f b477 e1bf
00000280: eac7 db3e 3f69 6cbe 3e0c 63bd 0448 a2be
00000290: f608 8f3e 25c4 403d 202b 5ebf 96cb 9fbf
000002a0: 44c1 afbf 2981 2fbe f5ba 13bd b23b 90be
000002b0: 5593 143d 861f 7bbf 6c41 6b3e b990 00bf
000002c0: 1f42 16bd 5902 67be 4e30 343e 2844 f7be
000002d0: 382c 50be 7a43 b8bd aa17 bdbf b1a0 a73f
000002e0: 0985 3ebe 5598 94be ef58 943d d1dd bdbe
000002f0: bfb7 aabe e158 62bd 187a 8ebd a26e 313f
00000300: 4b3a 013f 328d 2d3f 0483 473f 85cf abbe
00000310: 4491 85bd 6ea7 133f 3bc0 ab3e 08f9 0b3e
00000320: 1258 2bbf ad82 273f 6f75 f73e 74bb 2f3e
00000330: 9f6f 06bd 9609 81bd 20f8 3d3f a870 ebbd
00000340: 1eab cd3e 3f60 f1bd 04d7 cd3e 3c31 7b3e
00000350: 2a29 a3be cc90 e5bd 91c7 f0bf 7e4d a83e
00000360: 9c7a 373f 8e28 183f 7bfa 853f cb03 d0bd
00000370: 6445 d1bf 2042 0dbe f569 453e a25d 8d3f
00000380: 48fe 38bd 0123 343f e5fd 433e 644a 46be
00000390: 9e72 5dbf c223 3abb e3fc 5cc0 8b35 03c0
000003a0: 5227 ad3d ec04 303d 3dee c3be 4deb be3e
000003b0: 578c 9ebe 4564 04be c905 92be 5358 afbf
000003c0: d6d4 0a3e c90b a73e 85d0 78bd aff8 52be
000003d0: 8fac 07be af03 03c0 72d0 153e 90e5 993e
000003e0: 76d7 093f 8f9a a9be 983e 853f a35e cf3d
000003f0: 32d5 b13e 9c89 75bf 9521 7cbe 879e 1f3f

linear2.bias f4 [256]
0.06897764 -1.3330431 -0.047734596 -1.0051242 0.4510807 -0.73564106 0.1551146 -1.2421055
0.26027042 -0.49729612 -0.47914976 -0.30290785 -0.5956623 0.008043284 -0.16428596 -0.20183411
0.2800304 -0.14532267 -0.037181664 -0.26982513 -0.55765826 -0.045428213 -0.685243 -0.14978327
-0.61922073 -2.0192933 -1.6199126 -0.10817336 -1.3740605 -0.10167531 0.3391647 -0.24592905
-0.24686036 -0.10054567 -0.55178154 -0.69863236 -0.54174566 0.8224439 -0.29162782 -0.017855842
-0.08531726 -1.5433544 -1.0701158 0.29168716 -0.16664758 0.33113855 -0.47321942 -0.33676603
-0.4293905 -1.132713 -0.08979534 -0.7528227 0.34293583 -0.525694 0.016089784 -0.83228916
-0.38040778 -1.0977966 -1.2941297 0.20785978 -0.033998176 -0.69584394 -0.8522676 -0.5016374
-0.05987728 -0.09923081 -0.03149522 -1.0759456 -0.11938805 0.79054624 -0.6267469 0.1470511
-0.51967573 -0.51854044 -0.06449371 -0.47667226 -0.4842014 -0.30314025 0.008271648 -0.80262417
-0.04712289 0.2329371 -0.34311205 -0.7140941 -1.2091659 -0.082959704 -0.13062309 -0.6271695
0.28462496 -0.903675 0.10231943 -0.058309417 -0.08686735 -0.115054056 -0.53362584 -0.202941
-0.13605414 -0.21148475 -0.25193903 -0.14017035 0.13138002 -0.30745238 -0.6933671 0.10165107
0.5217166 -0.4141084 -0.43934822 -0.39729294 -0.06499427 -0.24511068 -0.43803462 -0.21711849
-0.066501416 0.036857314 -0.052270398 -0.0113182245 -0.59076554 -0.07192024 -0.117816545 -0.036201257
-0.97409844 0.26350752 -0.07703706 -0.8024817 0.41921434 -0.17188372 -0.18860959 -0.3887597
-0.106079586 -0.7158096 -0.13255945 -0.55586857 0.91910565 -0.08214148 -0.5454466 -0.17043805
-0.12543613 0.015439801 0.13669947 -0.7586928 -0.22469957 0.20226452 -0.061346345 -0.40322682
-0.06614042 -0.0119201895 -0.21434267 -1.2891848 -0.03272053 -0.5127376 0.0990581 -0.60947615
-0.75966966 -0.15104447 0.10078599 -0.09002938 -0.7251454 -0.07180028 -0.3425147 -0.14455311
-0.20905662 -0.13405089 -0.10346541 -0.51492345 -0.62583107 0.17240964 -0.9387515 0.2833236
-0.53627247 -0.8353216 -0.10988491 -0.032313973 -1.6336846 -0.23948014 -0.8823086 -0.0687201
0.33017462 -0.021373414 -0.42564896 0.35301176 -0.5914217 -0.12279976 -1.5014416 -0.05370901
-0.5558024 0.5482704 0.3359591 -0.13097377 0.08141078 -0.15132548 -0.9767216 -0.07490015
0.49604866 -0.13787805 0.033970237 -0.17282428 -0.08552806 -0.13208194 -0.17660432 -0.0895378
-0.09647354 0.727571 -0.076035455 -0.13423203 -1.1294391 -0.05463867 -0.06615807 -0.6766889
0.11294901 -1.3599552 0.1881549 -1.4521917 -0.10608265 -0.076098315 -0.6389243 -0.8006344
-0.4527811 -1.4221742 -0.22482206 0.07008601 -0.40826872 -0.3841594 0.33387157 -0.082521915
-0.09737428 -0.07283701 -0.14149532 -0.061089035 -0.038923472 -0.053011246 -0.27133763 -0.22917892
-0.25283015 -0.48948807 -0.062166486 -0.13074985 0.47910336 -0.086280495 -0.06426378 0.41605625
-0.19910352 -0.46760052 -0.24198337 -0.15619896 -0.5136071 -0.8399437 0.7536107 -0.25127444
-0.098483995 -0.46832734 -0.5480186 -0.8606795 -1.4481158 -0.49082607 -0.03148673 -1.6225704
00000000: 2644 8d3d 28a1 aabf 5a85 43bd e9a7 80bf
00000010: 0df4 e63e f952 3cbf 5dd6 1e3e 50fd 9ebf
00000020: 2a42 853e 999d febe 1e53 f5be bd16 9bbe
00000030: 537d 18bf fac7 033c 943a 28be 9aad 4ebe
00000040: 2560 8f3e 77cf 14be cd4b 18bd 8526 8abe
00000050: b1c2 0ebf ef12 3abd 166c 2fbf c960 19be
00000060: 4085 1ebf 1a3c 01c0 4c59 cfbf ff89 ddbd
00000070: 37e1 afbf 253b d0bd ffa6 ad3e d3d4 7bbe
00000080: f6c8 7cbe e3ea cdbd 8e41 0dbf 92d9 32bf
00000090: d8af 0abf af8b 523f 3e50 95be 6a46 92bc
000000a0: d1ba aebd a38c c5bf 8ef9 88bf 0558 953e
000000b0: aaa5 2abe fe8a a93e d149 f2be 996c acbe
000000c0: 12d9 dbbe bdfc 90bf 9fe6 b7bd fdb8 40bf
000000d0: 4995 af3e e293 06bf b9ce 833c e710 55bf
000000e0: cfc4 c2be 9984 8cbf 0ba6 a5bf 32d9 543e
000000f0: ac41 0bbd d422 32bf 362e 5abf 4f6b 00bf
00000100: e141 75bd 8639 cbbd 2201 01bd 96b8 89bf
00000110: b981 f4bd 3d61 4a3f 7c72 20bf 9094 163e
00000120: 7809 05bf 11bf 04bf 4715 84bd 630e f4be
00000130: 3fe9 f7be 3335 9bbe ce85 073c c778 4dbf
00000140: ee03 41bd 1087 6e3e 62ac afbe dfce 36bf
00000150: f3c5 9abf c7e6 a9bd 0fc2 05be 2e8e 20bf
00000160: 5dba 913e 3f57 67bf d98c d13d dbd5 6ebd
00000170: 82e7 b1bd 76a1 ebbd b49b 08bf c4cf 4fbe
00000180: c751 0bbe 758f 58be 27fe 80be d188 0fbe
00000190: 7c88 063e 666a 9dbe 8280 31bf 702e d03d
000001a0: 388f 053f 0406 d4be 40f2 e0be fb69 cbbe
000001b0: b71b 85bd 4bfe 7abe 1346 e0be 4f54 5ebe
000001c0: e531 88bd b2f7 163d 7c19 56bd 1370 39bc
000001d0: 693c 17bf eb4a 93bd cd49 f1bd c547 14bd
000001e0: 845e 79bf 75ea 863e 9bc5 9dbd 716f 4dbf
000001f0: 43a3 d63e 4902 30be df22 41be 830b c7be
00000200: 4140 d9bd 4c3f 37bf aabd 07be 674d 0ebf
00000210: 824a 6b3f cb39 a8bd 63a2 0bbf 5087 2ebe
00000220: 5472 00be 38f7 7c3c f2fa 0b3e b139 42bf
00000230: a517 66be 6e1e 4f3e 4e46 7bbd bf73 cebe
00000240: a174 87bd e64c 43bc a57c 5bbe 0204 a5bf
00000250: f605 06bd c542 03bf f9de ca3d a106 1cbf
00000260: b679 42bf 67ab 1abe e368 ce3d 5361 b8bd
00000270: 21a3 39bf 060c 93bd 165e afbe bb05 14be
00000280: f012 56be a344 09be ace5 d3bd 06d2 03bf
00000290: 7736 20bf 278c 303e 0552 70bf ca0f 913e
000002a0: 2749 09bf a3d7 55bf 570b e1bd a85b 04bd
000002b0: 941c d1bf 483a 75be fade 61bf 20bd 8cbd
000002c0: a60c a93e 4c17 afbc a9ee d9be f5bd b43e
000002d0: 6a67 17bf 717e fbbd 3d2f c0bf fbfd 5bbd
000002e0: 1149 0ebf 735b 0c3f d502 ac3e fd1d 06be
000002f0: b2ba a63d 11f5 1abe 6d0a 7abf 4065 99bd
00000300: 17fa fd3e e72f 0dbe 6024 0b3d d9f8 30be
00000310: 5629 afbd 7d40 07be c3d7 34be 985f b7bd
00000320: eb93 c5bd 1842 3a3f 7ab8 9bbd 1f74 09be
00000330: 7691 90bf cccc 5fbd e27d 87bd 7c3b 2dbf
00000340: d051 e73d 0313 aebf aeab 403e 6be1 b9bf
00000350: dc41 d9bd 6fd9 9bbd 8b90 23bf 60f6 4cbf
00000360: edd2 e7be ce09 b6bf c137 66be 4189 8f3d
00000370: 9908 d1be 8ab0 c4be 37f1 aa3e 4001 a9bd
00000380: 2b6c c7bd 922b 95bd 26e4 10be 7f38 7abd
00000390: 386e 1fbd 5222 59bd c4ec 8abe e1ad 6abe
000003a0: f472 81be 2e9e fabe 49a2 7ebd 4ae3 05be
000003b0: 094d f53e d4b3 b0bd bb9c 83bd 5305 d53e
000003c0: cbe1 4bbe 5669 efbe 7dca 77be 9ff2 1fbe
000003d0: c17b 03bf 8d06 57bf a1ec 403f 0ba7 80be
000003e0: fab1 c9bd 9ac8 efbe f24a 0cbf 7e55 5cbf
000003f0: dc5b b9bf 8e4d fbbe 3bf8 00bd 63b0 cfbf

mean_linear.weight f4 [2, 256]
0.1368513 -0.1914125 0.021165567 0.018618187 -0.084882125 -0.26481187 0.07692076 0.06379933
-0.034263253 0.05828578 -0.83969396 0.019712754 -0.027156929 0.09128597 0.009044791 -0.0072400104
0.045883406 -0.08113579 0.044560056 -0.01214945 0.11651448 -0.10212953 0.02917591 0.0096661225
0.076214164 -1.0969449 0.11899736 -0.04577336 -0.0020430514 0.079040706 0.101447366 -0.004466745
0.08460803 -0.03157961 0.03235078 0.22029226 0.109582774 0.15186052 -0.018852778 0.040965598
-0.07944404 0.43324772 -0.063634425 0.05301546 -0.51758456 -0.2643417 0.06470005 -0.026155284
0.1990807 0.05054158 0.0155010205 -0.023161337 -0.20568627 0.31838 -0.032590803 0.117306806
0.21776608 0.09022952 0.0042708414 -0.04049684 -0.014252305 0.0058007436 -0.1986316 0.01260695
-0.00581685 0.08254685 -0.06440291 0.023240542 -0.0493958 -0.05255187 0.147723 -0.024345154
-0.124630265 -2.1311257 -0.017805682 0.17150784 0.14244133 -0.018789463 -0.010077036 -0.012804863
0.08330124 -0.10544809 0.039611403 -0.03695409 -0.034046635 0.030481525 0.20248765 -0.063209645
-0.036017757 0.13767444 0.021544479 0.018084744 0.20420961 -0.072299 0.02018828 0.19389775
0.01202055 -0.006411802 0.06368006 0.28405637 0.06329506 0.052993424 0.09294824 -0.075746916
0.09631146 0.007941832 -0.057662874 -0.012879013 -0.016866181 -0.05356604 -0.010904762 0.011249936
-0.039759316 0.011015407 -0.045933217 0.08221109 0.04245521 0.041472994 0.015439038 0.00023127279
0.0044370834 -0.056072123 -0.13977323 0.16705151 0.013737068 -0.04402404 0.0050506922 0.07800551
0.020791156 -0.0739012 -0.0253047 -1.6801524 0.22582641 -0.06096556 -0.02503117 0.141584
-0.02905219 -0.029029584 -0.06761403 -0.013038666 -0.020453475 -0.06437506 -0.119105265 0.054307356
-0.07981086 -0.09172093 0.33000782 -0.011146589 0.25501406 0.011479166 -0.011634135 -0.013130179
0.07269668 0.047426168 0.02753017 0.08811943 0.044472586 0.042480703 -0.051391605 -0.02514344
0.00017101532 0.10113349 0.27707317 -0.06264235 -0.016740806 -0.031820033 0.098507136 -0.105569035
0.24056923 0.4557954 0.115063556 0.017407242 -0.11340373 0.02405161 0.25248638 -0.04604227
0.10612346 0.14371543 -0.2563385 0.06325649 -0.04728074 0.036346253 -0.0421854 0.12812753
0.041407343 -0.011866822 -0.087174684 -0.08917271 0.036016647 -0.0137349395 0.054358803 0.007946402
-0.14568397 0.045395337 -0.028736345 -0.0008848092 -0.0059220176 -0.0845645 0.2667713 0.021093702
-0.00827979 -0.49653593 -0.023291098 0.023603003 -0.020633008 0.005864221 0.055607557 0.0017857897
0.07657331 -0.07262898 -0.05758605 0.016920563 0.08226634 0.017919216 -0.088210285 -0.14525439
-0.90198433 -0.180404 0.036686305 0.07957979 0.11745713 0.010003013 0.037524626 0.059312485
-0.1553496 0.06947478 0.08649932 0.103970945 0.061639804 0.020738361 0.1111818 0.019179603
-0.11283756 0.024260063 0.14867409 0.08801558 -0.23654689 -0.030799303 -0.095192775 0.25960281
0.23165858 0.124688104 -0.037305027 -0.056973215 0.10633814 0.06595057 -0.078178406 -0.0069224983
0.1677726 0.06000803 0.12634964 0.06864187 -0.05442812 -0.08780103 -0.11603456 0.056604024
00000000: bf22 0c3e a301 44be 6963 ad3c 2b85 983c
00000010: aed6 adbd 6c95 87be a288 9d3d 39a9 823d
00000020: a057 0cbd 12bd 6e3d 2ff6 56bf a47c a13c
00000030: 3578 debc 23f4 ba3d 9a30 143c 9c3d edbb
00000040: 3df0 3b3d 852a a6bd 9b84 363d 7d0e 47bc
00000050: 259f ee3d 4929 d1bd 5102 ef3c a85e 1e3c
00000060: 2c16 9c3d b168 8cbf e3b4 f33d d97c 3bbd
00000070: b7e4 05bb 18e0 a13d a3c3 cf3d c65d 92bb
00000080: fa46 ad3d 9f59 01bd 4082 043d 4b94 613e
00000090: ef6c e03d 5381 1b3e 2471 9abc 8bcb 273d
000000a0: 8fb3 a2bd a5d2 dd3e c452 82bd bd26 593d
000000b0: 6c80 04bf cc57 87be 7681 843d 9b43 d6bc
000000c0: d0db 4b3e b004 4f3d fef7 7d3c d8bc bdbc
000000d0: 6c9f 52be b402 a33e ef7d 05bd 8d3e f03d
000000e0: 12fe 5e3e 41ca b83d 6af2 8b3b 04e0 25bd
000000f0: 8082 69bc 2a14 be3b 1566 4bbe 618d 4e3c
00000100: 469b bebb 530e a93d ace5 83bd f362 be3c
00000110: 4053 4abd a140 57bd b344 173e 7d6f c7bc
00000120: 273e ffbd 5d64 08c0 39dd 91bc c09f 2f3e
00000130: 24dc 113e 5cec 99bc 271a 25bc 7dcb 51bc
00000140: d799 aa3d 2bf5 d7bd 913f 223d 2c5d 17bd
00000150: 7c74 0bbd 64b4 f93c ec58 4f3e 0f74 81bd
00000160: 5b87 13bd 87fa 0c3e 0c7e b03c 7526 943c
00000170: 531c 513e 8011 94bd e461 a53c 228d 463e
00000180: d7f1 443c 181a d2bb b16a 823d d66f 913e
00000190: d7a0 813d a20f 593d a65b be3d 3321 9bbd
000001a0: f13e c53d 751e 023c e82f 6cbd 7f02 53bc
000001b0: f22a 8abc 1068 5bbd e3a9 32bc a751 383c
000001c0: aada 22bd f779 343c 7824 3cbd 4a5e a83d
000001d0: 84e5 2d3d 96df 293d 05f4 7c3c d181 7239
000001e0: f464 913b e2ab 65bd b720 0fbe 8d0f 2b3e
000001f0: 7011 613c 8d52 34bd 4780 a53b 5ac1 9f3d
00000200: 3752 aa3c 8359 97bd cd4b cfbc 3c0f d7bf
00000210: 0a3f 673e 06b7 79bd 2b0e cdbc 65fb 103e
00000220: dcfe edbc 73cf edbc 3979 8abd 21a0 55bc
00000230: 0c8e a7bc 12d7 83bd 76ed f3bd 6471 5e3d
00000240: e073 a3bd 2fd8 bbbd c9f6 a83e 2fa0 36bc
00000250: 3491 823e 1d13 3c3c 199d 3ebc f61f 57bc
00000260: ffe1 943d f141 423d f386 e13c f677 b43d
00000270: e328 363d 3f00 2e3d 0180 52bd 9ef9 cdbc
00000280: 9352 3339 131f cf3d 89dc 8d3e a24a 80bd
00000290: 0424 89bc b955 02bd 1cbe c93d 9434 d8bd
000002a0: c857 763e 045e e93e 71a6 eb3d a299 8e3c
000002b0: 3740 e8bd e207 c53c e545 813e d296 3cbd
000002c0: 4257 d93d 232a 133e cd3e 83be 9e8c 813d
000002d0: 73a9 41bd cfdf 143d 99ca 2cbd dd33 033e
000002e0: bf9a 293d 0f6d 42bc a488 b2bd 2fa0 b6bd
000002f0: 3186 133d 8308 61bc 56a7 5e3d a031 023c
00000300: 2e2e 15be 76f0 393d 7c68 ebbc 8af2 67ba
00000310: 7c0d c2bb 2730 adbd 3f96 883e b3cc ac3c
00000320: f5a7 07bc f539 febe f9cc bebc 165b c13c
00000330: 8e06 a9bc a728 c03b c0c4 633d 2911 ea3a
00000340: 78d2 9c3d 81be 94bd 5adf 6bbd fe9c 8a3c
00000350: 417b a83d 52cb 923c 98a7 b4bd 91bd 14be
00000360: 72e8 66bf d4bb 38be 6144 163d bbfa a23d
00000370: 5d8d f03d ade3 233c 6cb3 193d a6f1 723d
00000380: f713 1fbe cb48 8e3d 8e26 b13d b8ee d43d
00000390: 057a 7c3d 7fe3 a93c 49b3 e33d 8b1e 9d3c
000003a0: 6117 e7bd 0abd c63c 053e 183e 8341 b43d
000003b0: 5939 72be d24e fcbc 6ef4 c2bd a9ea 843e
000003c0: e837 6d3e 7a5c ff3d 28cd 18bd bf5c 69bd
000003d0: d0c7 d93d 1811 873d 001c a0bd 20d6 e2bb
000003e0: 95cc 2b3e fbca 753d cd61 013e 1c94 8c3d
000003f0: 05f0 5ebd 07d1 b3bd 87a3 edbd 9fd9 673d

mean_linear.bias f4 [2]
-0.3829117 -0.70679003
00000000: 010d c4be 31f0 34bf

log_std_linear.weight f4 [2, 256]
-0.039414525 0.28274524 -0.061343998 0.04474721 -0.004235857 0.23922457 0.021878881 0.19240998
0.040262885 0.011873696 0.059687547 0.041595533 0.09816572 0.06889126 0.061975025 0.05532539
0.08727084 0.075220115 -0.112186156 0.046771936 0.061600655 0.0053002154 0.08280772 -0.0062784776
0.03063255 0.48148513 0.011186493 0.02718705 0.07047569 5.752095e-06 -0.043383986 0.13424782
0.03956206 -0.008761345 0.04197301 0.40838948 -0.04929702 -0.07246372 0.24941108 -0.082388185
-0.01634999 0.24712977 0.06271021 0.054022312 0.51351 0.17041595 0.05214256 -0.01608885
0.8944262 0.155646 0.0022540065 0.21990146 -0.07462335 0.2631745 0.09297086 0.02375813
0.9830879 0.20945138 0.17881946 0.060843572 -0.07167824 -0.010524279 0.41753197 -0.019469792
-0.017214984 0.08995285 -0.072566144 0.18877448 -0.028574629 0.011666735 -0.0059887795 0.047670793
0.14844306 -0.0018954482 0.018579543 0.07678121 -0.06209246 0.05065003 0.011396332 0.034705605
-0.016164936 0.04943965 0.83534014 0.12664786 -0.05656303 0.0415135 -0.25972554 0.26971176
0.012597689 -0.09462634 0.17393596 0.0894967 0.0031548208 0.11581863 -0.050212625 0.22350268
-0.005797957 0.048292167 0.045897797 0.08000372 0.014094491 0.023627156 -0.004946926 0.014553158
0.0021474564 0.1265251 0.48957542 0.13826182 0.025630297 -0.010680178 0.01209013 0.011647143
0.049759727 0.059307374 0.029178398 0.0277897 1.0702701 0.03881728 -0.02488803 -0.047811452
0.032360297 0.030664576 0.007982384 0.07243633 0.034960117 0.03752572 0.062019937 0.036321487
-0.0030916044 0.09103266 0.048675895 0.07898233 -0.17178641 0.053252157 0.077548675 0.05158232
-0.021764344 0.053398103 -0.026712367 0.057332583 0.17337404 0.048282143 -0.16054875 1.1141312
-0.075768806 -0.0070478544 0.31160876 0.061635885 -0.097414896 0.032246348 0.0023024972 -0.1093393
0.018645057 0.0430827 0.037922997 0.012601922 0.03033328 0.07574562 0.06492952 0.110284515
0.062676266 -0.04927039 0.014212096 0.07539385 0.08598223 -0.0060312594 0.12813424 0.06610813
-0.41931552 -0.09490521 0.023054345 -0.031493124 0.05601951 0.007687506 0.07497241 0.113081135
-0.043827925 0.13422956 -0.06878188 0.09150734 0.01485996 0.12289165 0.035704575 0.043892957
0.120152004 0.11328646 0.062755965 0.062562995 0.036873415 0.00027237323 0.11461115 0.08513136
-0.04554816 0.027268585 0.00398281 0.057643566 0.031274345 0.026455978 0.08465577 0.11117771
0.099106655 -0.011759557 0.056168687 -0.14119253 0.03865852 -0.08409502 0.10951724 0.14253283
-0.00228654 0.21351327 -0.043570105 0.0402426 0.018298635 -0.05391743 -0.0043284483 0.044024043
0.4217628 0.106959544 0.04023644 0.02590349 0.04905172 -0.04081484 -0.085500754 0.0573151
0.3273598 0.047197223 0.22084764 0.14901604 -0.08865814 0.085660785 0.06510603 0.16342492
0.010474629 -0.037876908 -0.06498026 0.06013206 -0.3263526 0.039307203 0.028311739 -0.18138196
0.02760288 0.099236645 0.108376324 0.04345929 0.047587723 -0.001260656 0.028888404 0.015112053
0.052831296 0.118958935 0.087195516 0.134513 0.14571886 0.06780148 0.0153368 0.010506995
00000000: 2071 21bd fcc3 903e d843 7bbd da48 373d
00000010: f2cc 8abb 49f7 743e 573b b33c 1f07 453e
00000020: b2ea 243d e489 423c ee7a 743d 1460 2a3d
00000030: 1c0b c93d dc16 8d3d 86d9 7d3d e09c 623d
00000040: 0ebb b23d 010d 9a3d dbc1 e5bd ee93 3f3d
00000050: f850 7c3d 6ead ad3b 1897 a93d b0bb cdbb
00000060: 1df1 fa3c 3885 f63e 8d47 373c 60b7 de3c
00000070: 8f55 903d 1f02 c136 68b3 31bd 4378 093e
00000080: d40b 223d bf8b 0fbc e4eb 2b3d 6d18 d13e
00000090: aceb 49bd dc67 94bd 9e65 7f3e 23bb a8bd
000000a0: 6af0 85bc 960f 7d3e 366e 803d 8046 5d3d
000000b0: 6475 033f 8581 2e3e 7093 553d c4cc 83bc
000000c0: 1ef9 643f aa61 1f3e f4b7 133b d92d 613e
000000d0: 20d4 98bd cfbe 863e 8267 be3d 69a0 c23c
000000e0: a6ab 7b3f 6c7a 563e 731c 373e 1c37 793d
000000f0: 0bcc 92bd 076e 2cbc c0c6 d53e 1d7f 9fbc
00000100: 7006 8dbc 3339 b83d 8f9d 94bd 194e 413e
00000110: 5715 eabc d525 3f3c 863d c4bb 7342 433d
00000120: 7501 183e b070 f8ba 2034 983c 783f 9d3d
00000130: aa54 7ebd 6876 4f3d aeb7 3a3c 7727 0e3d
00000140: 546c 84bc 3b81 4a3d dad8 553f faaf 013e
00000150: a3ae 67bd 0f0a 2a3d bffa 84be a917 8a3e
00000160: 8a66 4e3c 74cb c1bd 451c 323e 0c4a b73d
00000170: 1cc1 4e3b 5132 ed3d c1ab 4dbd e3dd 643e
00000180: cafc bdbb 02ce 453d 54ff 3b3d fed8 a33d
00000190: 94ec 663c bd8d c13c d319 a2bb 5e70 6e3c
000001a0: 57bc 0c3b cc8f 013e a1a9 fa3e 8294 0d3e
000001b0: a1f6 d13c eafb 2ebc ae15 463c a9d3 3e3c
000001c0: dbd0 4b3d 4aec 723d 8907 ef3c 3aa7 e33c
000001d0: 9cfe 883f defe 1e3d fbe1 cbbc f1d5 43bd
000001e0: 3b8c 043d 4734 fb3c 8cc8 023c 8059 943d
000001f0: 5732 0f3d 92b4 193d 9e08 7e3d d7c5 143d
00000200: 849c 4abb 556f ba3d 6060 473d 7dc1 a13d
00000210: c7e8 2fbe ef1e 5a3d d7d1 9e3d fc47 533d
00000220: 234b b2bc f8b7 5a3d e5d3 dabc 92d5 6a3d
00000230: f788 313e 7fc3 453d e466 24be da9b 8e3f
00000240: ad2c 9bbd b0f1 e6bb 2f8b 9f3e e975 7c3d
00000250: 7681 c7bd bf14 043d 7ee5 163b 48ed dfbd
00000260: 85bd 983c 7c77 303d 2555 1b3d 4b78 4e3c
00000270: 807d f83c 8520 9b3d c5f9 843d d9dc e13d
00000280: 6a5c 803d c0cf 49bd dad9 683c 1768 9a3d
00000290: 7417 b03d dfa1 c5bb 9f35 033e b363 873d
000002a0: 86b0 d6be aa5d c2bd 77dc bc3c effe 00bd
000002b0: b774 653d 79e7 fb3b 238b 993d 1597 e73d
000002c0: e984 33bd 7973 093e 84dd 8cbd 3368 bb3d
000002d0: 3177 733c 9eae fb3d f63e 123d 1ac9 333d
000002e0: 4112 f63d bb02 e83d 3386 803d 0721 803d
000002f0: 9408 173d 51cd 8e39 40b9 ea3d 5a59 ae3d
00000300: b590 3abd 5e62 df3c 3b82 823b a91b 6c3d
00000310: 8719 003d 35ba d83c 0160 ad3d 24b1 e33d
00000320: 6ef8 ca3d 28ab 40bc 2311 663d c694 10be
00000330: 6558 1e3d 033a acbd 934a e03d 20f4 113e
00000340: c7d9 15bb 39a3 5a3e 9176 32bd 6dd5 243d
00000350: 05e7 953c 86d8 5cbd a8d5 8dbb 8e52 343d
00000360: 4bf1 d73e 9b0d db3d f7ce 243d 8e33 d43c
00000370: 75ea 483d 762d 27bd 051b afbd 3dc3 6a3d
00000380: b49b a73e e051 413d e225 623e a997 183e
00000390: 6692 b5bd ec6e af3d 4f56 853d dd58 273e
000003a0: c79d 2b3c d124 1bbd 5f14 85bd 094d 763d
000003b0: b017 a7be 9700 213d 05ee e73c 31bc 39be
000003c0: 6f1f e23c 953c cb3d 68f4 dd3d 5e02 323d
000003d0: 58eb 423d 993c a5ba 60a7 ec3c 8b98 773c
000003e0: a165 583d bea0 f33d 9093 b23d c7bd 093e
000003f0: 5337 153e 81db 8a3d 3447 7b3c 8825 2c3c

log_std_linear.bias f4 [2]
-0.34019098 -0.3953466
00000000: 832d aebe df6a cabe
