output/Quadrotor-DOB-Trained/critic.pkl (torch, 562625 bytes, 10 tensors)

linear1.weight f4 [256, 14]
000000 1f dc 7d be 6b 08 89 bf 3b 90 b1 be e3 4a f1 3d
       -0.24791001 -1.0705694 -0.34680352 0.11781862
000010 46 cd a9 be 70 f5 72 3c 4c 61 81 be 50 b5 fb be
       -0.33164424 0.014829025 -0.25269544 -0.49161768
000020 2c fe 36 3f 11 54 29 bd 1d c1 cd be 3a c5 bc bc
       0.71481586 -0.041339938 -0.40186396 -0.023043264
000030 b9 72 92 ba f8 ef e4 be 37 61 4a 3d 2f 0b e1 bd
       -0.0011173106 -0.44714332 0.049409118 -0.10988461
000040 06 3f fd 3e 5c 17 42 3e c2 5d f2 bd 34 97 8e ba
       0.49462146 0.18954223 -0.11834289 -0.0010878802
000050 71 03 8e 3e 4a b9 19 bc 94 20 80 bf 16 05 b6 3e
       0.27737 -0.009382555 -1.0009942 0.35550755
000060 ae 33 8a 3e 75 a1 77 bc fc 0e 98 be 0c 43 b4 be
       0.26992553 -0.015114178 -0.29698932 -0.35207403
000070 32 67 8c bd 37 4d 14 bf 1b c6 01 be d8 a2 68 3d
       -0.068556204 -0.5793032 -0.12673227 0.056795925
000080 12 24 75 3d 36 38 fe 3a b3 05 96 be b1 28 67 bf
       0.059848852 0.0019395414 -0.29301223 -0.90296465
000090 aa 57 3b 3e 9f c2 cc bd 9c ff 47 be 1b 37 d4 3c
       0.1829516 -0.099980585 -0.19531101 0.025905183
0000a0 0b 1b 95 3d e9 37 ed 3d 6f 74 1f 3e 25 98 8b bd
       0.07280549 0.1158293 0.1557176 -0.06816129
0000b0 b8 3a d4 be f2 36 e1 bd 4f 75 4d be a8 2d 51 3d
       -0.4145105 -0.10996808 -0.20064281 0.05106893
0000c0 ca c4 6b be 12 03 e3 3e 3a 2b 1b bf fd e5 3f 3e
       -0.23024288 0.4433828 -0.60612833 0.18740077
0000d0 f6 6e 4d bd 1f e4 ec 3c 16 b9 b0 be 97 47 1d be
       -0.05015465 0.02891737 -0.3451621 -0.1535934
0000e0 25 a2 24 3f 7a 5d b4 be 55 91 6c 3e fe ba 8e be
       0.6430991 -0.35227567 0.23102315 -0.2787704
0000f0 c0 59 8e be ec df 5a 3c 5f 37 00 bf 97 d9 a7 be
       -0.2780285 0.013359051 -0.5008449 -0.32783195
000100 a3 b8 78 3f 4d 27 3d be ef 18 40 bf f4 ce 44 3d
       0.97156733 -0.18472023 -0.75038046 0.04804893
000110 6b 50 c5 3e 4e 95 4b 3d e1 91 8b 3e 73 8a e3 bd
       0.38537917 0.049702935 0.27259734 -0.111103915
000120 16 d5 fd 3e 5e ef 9c 3d be e3 4b 3c b3 ec 8b 3c
       0.49576634 0.07662843 0.012444435 0.01708064
000130 da 3c 97 be d3 82 4d 3e 65 bf 7c be 04 3b e3 3d
       -0.29538614 0.20069437 -0.24682386 0.11095241
000140 00 dd df 3c b2 2e 80 3d ca 36 a6 be a1 a7 da 3e
       0.02732706 0.062589064 -0.32463676 0.42706016
000150 bc cc 85 be d2 66 e6 be 3e 56 97 be 7b d2 24 3c
       -0.26132762 -0.4500032 -0.29557985 0.010059948
000160 97 92 d9 bd 3c f1 25 3c 3f f7 1a 3f 9a 8c a4 3c
       -0.10623663 0.010128316 0.6053352 0.020086575
000170 f4 7f a7 3e c2 89 0d be 9d bc 00 3f 29 4e 08 3e
       0.32714808 -0.13822082 0.502878 0.13311066
000180 4c 88 ee be e3 7f e4 3e 13 0c 90 be 1b 08 65 be
       -0.4658836 0.4462882 -0.28134212 -0.22366373
000190 2f e1 97 be d1 2a e5 bd 76 2f 9c 3d 37 e6 7c bc
       -0.2966399 -0.11189807 0.0762624 -0.015435747
0001a0 e7 50 77 3e c3 df 17 3f 49 5f 3d bf 53 04 0c be
       0.24151956 0.5932581 -0.7397352 -0.13673525
0001b0 36 6b 72 3e 11 10 c3 3c 52 2b 40 be 23 1f 3a bc
       0.2367371 0.023811372 -0.18766525 -0.011359963
0001c0 b7 51 c6 3d 59 34 a0 be 68 ce ae 3c 62 4c 0a be
       0.096835546 -0.31289938 0.021338657 -0.135057
0001d0 a7 ac 2b bf 3d 1d a3 3b 51 cc 7a 3e df 51 5b bd
       -0.6706032 0.0049778507 0.24492003 -0.053544875
0001e0 ca f5 23 3e a9 0c 1f 3e 85 57 39 3e aa 7c 48 3d
       0.1601173 0.15532173 0.18099792 0.048947014
0001f0 16 46 7d be 08 02 11 be 8f 75 80 3b c3 0b 37 3e
       -0.24733767 -0.14160931 0.003920264 0.1787558
000200 cd b1 df 3e 57 e4 8a 3d 98 c5 15 3e 95 a6 58 3c
       0.4369034 0.067818336 0.14626157 0.01322331
000210 3c c6 ac 3e f2 19 12 3f de 1d 33 bd ef ce 8d bc
       0.3374499 0.5707084 -0.043729655 -0.017310588
000220 85 b7 c4 3e 82 f7 8d 3c 75 6e c7 be ee 56 35 3e
       0.38421264 0.017329935 -0.3895146 0.17708942
000230 88 47 de be a2 2d c6 3c 50 48 a0 be ec 4f 19 3d
       -0.4341395 0.024191681 -0.3130517 0.037429735
000240 aa 3b 7f bd a7 8f 90 3a 46 a2 60 3e 94 a0 22 3e
       -0.06231276 0.001102914 0.21936902 0.15881568
000250 e6 b4 04 bf 27 d5 e2 3e c8 94 75 3e 90 01 f9 bc
       -0.5183853 0.44303247 0.23982537 -0.030396253
000260 fa 17 e7 bd a6 0b 10 be 9f 6c 90 3f 77 93 ac bf
       -0.1128387 -0.14066944 1.1283149 -1.3482503
000270 01 d9 90 bd a2 a0 e9 3d ff 6a a6 bc 79 af fb ba
       -0.0707264 0.114075914 -0.020314692 -0.0019202075
000280 91 6a 99 be 13 2c 88 3e 5c 81 f0 3e 94 c5 51 bf
       -0.29964116 0.26596126 0.46973693 -0.81942105
000290 fb 63 59 be 02 8d ca 3c b8 83 b8 3c 7f dd 02 bd
       -0.21229546 0.02472544 0.022523746 -0.031949516
0002a0 a5 cd 4e 3f 9f 41 8c 3e a3 c6 e0 3d 2f 0b a5 bd
       0.8078254 0.27393815 0.10975387 -0.08058774
0002b0 d1 27 b0 bd d3 e7 b7 3b 10 6a e3 be 5d 79 c4 be
       -0.086013444 0.0056123524 -0.44416857 -0.38373843
0002c0 f8 e0 14 3f a0 d8 49 bb dc 7e 9e be 0f 42 c9 bb
       0.58155775 -0.0030799285 -0.3095616 -0.006141908
0002d0 10 59 2c be 7a 9c b3 3c 20 ea d6 3c 87 85 95 3d
       -0.1683085 0.0219252 0.026234686 0.07300859
0002e0 ca 1c 4d bf ff 49 45 3c 2f fa 63 3c 2f 2c fb bb
       -0.80122054 0.012041568 0.013914629 -0.007665179
0002f0 b4 d7 2a bd fe 50 39 bf a0 d9 3b 3f cd 76 e1 be
       -0.041709617 -0.7238921 0.73378944 -0.4403595
000300 08 a8 e8 bd 9d 61 1b bc 32 22 93 3e 64 89 8e be
       -0.113601744 -0.009483722 0.28737026 -0.27839196
000310 03 39 33 bc b8 1d 5b bf 54 4d c9 bd 2d e3 d1 be
       -0.010938886 -0.8559222 -0.09829202 -0.40993634
000320 8e 53 1e bf 35 dc 61 b8 95 bb ae bd 25 ff 73 be
       -0.61846244 -5.3849264e-05 -0.08531872 -0.23827799
000330 66 8c 8c bd bb 9b 23 3e b4 a0 dd 3d 36 67 7d 3d
       -0.068627164 0.15977375 0.10821667 0.061866008
000340 5f 71 8c be 5e 8e b1 be e1 e9 13 bf 06 f8 d3 3d
       -0.27430245 -0.3467893 -0.57778746 0.10350041
000350 d9 cd 08 bf 90 34 43 3f 1a c0 f8 bc 53 0e 86 bc
       -0.534391 0.7625208 -0.030365039 -0.016364252
000360 96 a1 9d 3e 94 ad 2c be 29 ca 10 3f 0f 69 57 bf
       0.30787343 -0.1686309 0.5655847 -0.8414468
000370 03 b9 3f 3e c5 15 3d 3c 65 b1 8e 3e 59 1a 4b be
       0.1872292 0.011540835 0.27869716 -0.1983427
000380 75 d6 a9 bd 18 54 31 bf 41 28 9c be 85 37 f0 3e
       -0.082928576 -0.6926894 -0.3049946 0.46917358
000390 bf 6d 6b bf e5 88 d3 bb 35 5d 1b 3f d2 d4 88 3e
       -0.91964334 -0.006455528 0.606891 0.2672487
0003a0 59 67 12 3f 98 59 25 bf 51 ef ff 3e 3d 11 b0 3c
       0.57188946 -0.64589834 0.4998727 0.021492595
0003b0 c4 a0 1b be c2 54 b5 be ec ac fe be 7d a6 d0 3e
       -0.15198046 -0.35416228 -0.49741304 0.4075202
0003c0 5f ad e0 be f7 67 ad bc 02 e2 8e 3d 15 cd b4 3b
       -0.43882272 -0.021167738 0.06976701 0.0055176117
0003d0 e4 1e 1a 3d 09 76 bd be 1a 14 f1 3d 7f 57 f3 3c
       0.037627116 -0.37004116 0.11771412 0.029704807
0003e0 26 35 c7 bb 18 b4 1e 3c 0f 8c 0a 3e ea d0 e1 be
       -0.006079334 0.009686492 0.1352999 -0.441047
0003f0 46 fe 22 be 30 f7 ef 3b 6b 20 1a bf d2 b6 84 bb
       -0.1591731 0.007323168 -0.60205716 -0.004050114

linear1.bias f4 [256]
000000 c9 8c 56 3d 3c 19 39 3d 85 f6 30 3e 30 3f e1 3e
       0.052380357 0.04519008 0.1728154 0.4399352
000010 a8 cc b5 bc 63 f8 0e 3f ba 84 c5 bd e2 d5 7d 3e
       -0.022192314 0.5584776 -0.09644456 0.24788621
000020 9c 68 b4 3e 0a f4 52 3d 58 29 de bd 2d 4d 8e 3e
       0.3523606 0.051502265 -0.108477294 0.27793255
000030 a0 63 ab 3d 01 ad 52 bf 6a b6 e9 3d 79 b6 ff bc
       0.08368611 -0.82295233 0.11411746 -0.03121494
000040 18 38 9c 3e 8c 58 82 3e 9e 98 36 3f 6e 9d ef 3c
       0.30511546 0.2545818 0.71326625 0.029249873
000050 3d 47 2c bf f2 dd 4f be 69 98 4f bf 77 15 01 be
       -0.672962 -0.20299509 -0.81091934 -0.12605844
000060 43 9a 30 bf a7 e6 52 be 1f 58 54 be 14 53 de be
       -0.68985385 -0.205958 -0.2073674 -0.4342276
000070 f0 bb 6e bf ab 9e 4e bc 16 b9 5d 3e f0 51 7f be
       -0.9325552 -0.012611072 0.21652636 -0.249336
000080 3c f8 64 3d a1 8e a7 be e1 a9 45 bf 12 ed 15 3e
       0.055900797 -0.32726005 -0.7721234 0.14641216
000090 55 74 64 be e3 39 a1 bd a3 f5 73 3e f3 39 53 3f
       -0.22310002 -0.07872369 0.23824172 0.825103
0000a0 7f b3 ca 3e 06 ce b1 bd 75 a7 61 bf 0a cc 4a bc
       0.3959007 -0.08681874 -0.88146144 -0.012377748
0000b0 33 62 80 bd 48 56 e4 be f7 c9 7f 3f 70 df 42 be
       -0.0626873 -0.44597077 0.9991755 -0.19030547
0000c0 dc 58 5b be ac d8 e7 3e 90 6b 92 be e8 b5 f4 3e
       -0.21420616 0.45282495 -0.2859769 0.47795033
0000d0 94 f2 26 bf 2f 0e 08 3f d0 8b 29 3f 75 68 33 bf
       -0.65213895 0.5314664 0.6622896 -0.70081264
0000e0 24 f2 2e bf a2 be c5 be 32 f0 cc be 0b 8b cb be
       -0.6833823 -0.38622004 -0.40027004 -0.3975452
0000f0 f2 36 a7 3e b8 c4 8c 3e 7b f1 41 bf 91 64 03 3d
       0.32659107 0.27493834 -0.75759095 0.03207833
000100 30 92 36 bf f0 fc cc be 14 27 b6 bd 74 69 c3 bc
       -0.71316814 -0.40036726 -0.08894172 -0.023853995
000110 49 f4 e2 3e 01 0a b1 3d 05 26 69 3e 78 3c 55 be
       0.44327 0.08644486 0.2276841 -0.20823848
000120 5c 9d cc 3d 00 6e 5f bf aa e4 0b bf 99 7b 32 bc
       0.099909514 -0.8727722 -0.5464579 -0.010893726
000130 7d 25 4f bc 13 22 1d bd 7d 9f 6d bf 5c f1 4a 3e
       -0.012643215 -0.038362574 -0.92821485 0.19818634
000140 ba 3c ae be 29 06 ab be 82 86 19 bf f2 c3 94 bd
       -0.34030706 -0.33403137 -0.5997087 -0.07263936
000150 7e 99 9e be 08 7a 1b 3d 3a 77 a1 3d 8a e4 3a bf
       -0.3097648 0.037958175 0.07884069 -0.7300497
000160 7d 88 b2 be 41 22 b8 bd 5c 52 b3 be 50 fe c1 3d
       -0.34869757 -0.089909084 -0.35023773 0.094723344
000170 92 cd 02 be 54 ab 0c bf 56 85 c8 3d 68 6f bd 3d
       -0.12773731 -0.54948926 0.09791057 0.09249765
000180 9e 60 49 bd 63 23 5b bc a0 21 e3 bd 16 e6 5c bf
       -0.049164407 -0.013375136 -0.11090398 -0.86288583
000190 50 a6 4c 3e 42 e5 40 be 99 b6 14 bf 07 65 49 bf
       0.19985318 -0.18837455 -0.5809112 -0.7866978
0001a0 0d 93 1f bc 76 d8 b2 be d0 1d 1e be c7 51 50 bf
       -0.0097396495 -0.34930772 -0.1544106 -0.8137478
0001b0 6c 4f 46 be 0d 6b 39 bf 1b b5 94 3c 12 8b b2 bd
       -0.19366235 -0.7242897 0.018152764 -0.08717932
0001c0 74 e2 31 3f d7 fc bb bd 0b 8e c7 3e 6e 29 77 be
       0.69486165 -0.09179085 0.38975558 -0.24136898
0001d0 cf b4 f7 be 2e 64 95 3e fe 1b ce bd 71 7f 41 3d
       -0.48380134 0.29177994 -0.10063933 0.04724068
0001e0 9e 58 29 3d 52 69 cc be df 76 13 3f 9c 87 2d bf
       0.041344278 -0.39924103 0.5760326 -0.6778505
0001f0 4c ea df 3d 07 84 2d 3e 85 9a b7 3c be a2 aa bd
       0.109333605 0.16944896 0.022412548 -0.08331822
000200 7f e6 d8 be 30 b2 80 bd 24 c8 82 3e aa 36 3a 3f
       -0.42363355 -0.062839866 0.2554332 0.7273966
000210 05 21 33 3f 8b 49 b6 be f6 7a 24 3e e3 a9 9e 3e
       0.6997226 -0.35602984 0.16062531 0.30988988
000220 1f c3 e4 bd 10 fa 5c bf 37 4a 4b bf b0 28 32 be
       -0.11170029 -0.86319065 -0.7941012 -0.17398334
000230 2e f3 24 3f 98 e9 14 bd a7 f5 6d 3e 8e 91 14 bf
       0.6443356 -0.036355585 0.2323824 -0.580346
000240 ad 7c 70 bd ed c7 d2 be 88 00 4d be b1 43 0c be
       -0.05871265 -0.41168156 -0.20019734 -0.13697697
000250 09 21 1f bf 74 05 b6 3e 3b e5 1e bf c9 d3 24 bb
       -0.6215978 0.35551035 -0.6206853 -0.0025150648
000260 5c d8 fe 3e 12 7d 40 bf c0 15 82 3d 80 37 c8 3d
       0.49774444 -0.7519084 0.06351805 0.09776211
000270 57 91 16 be 02 5a 63 3e fb 57 3e 3f 7e 3b 27 3d
       -0.1470388 0.22202304 0.74353 0.04082822
000280 51 ea 1b bd 7f 18 25 bd a9 3f 07 3e 2d 1c 52 bf
       -0.03806526 -0.040306564 0.13207878 -0.8207424
000290 74 8c 28 bf e8 ec c3 bd db ea ad be f8 9a ab be
       -0.65839314 -0.09566671 -0.33968243 -0.3351667
0002a0 ba 20 92 be aa cd 4f be d5 78 4a bf ee 4b 80 bd
       -0.28540593 -0.20293298 -0.79090625 -0.062644824
0002b0 01 a6 3a bd d3 1a 12 bf 24 d4 c0 3c da 74 89 3e
       -0.04556847 -0.5707218 0.023538657 0.26846963
0002c0 67 dc 5c 3c 1e 62 83 be fe eb 27 bf 80 f3 5b be
       0.013480282 -0.25660795 -0.6559447 -0.21479607
0002d0 1e 23 74 be 9f ab b9 3d 0d 95 38 bf 79 55 a8 bb
       -0.23841521 0.09065937 -0.72102433 -0.0051371423
0002e0 45 a9 53 bf d4 1c 67 bf ab bb 9a be d1 b1 75 3c
       -0.8268016 -0.90278363 -0.30221304 0.014996008
0002f0 94 2a bb 3d 4a 80 8e bd 1e 1a 14 3e b1 e4 8b be
       0.091389805 -0.06958063 0.14463088 -0.27322915
000300 5f 5f 57 bf 96 2b 29 3e a1 79 5e bf 1a 48 0c bd
       -0.841299 0.16520533 -0.8690434 -0.03424845
000310 e8 32 c6 be 2c fc de 3c e6 9c c6 be b3 2f 5d 3e
       -0.38710713 0.027219854 -0.3879158 0.21600227
000320 11 f2 4a bc b8 ac 20 bf a9 49 9c be 02 73 68 be
       -0.012386815 -0.6276355 -0.30524948 -0.22700122
000330 86 0e 76 3d 14 5e 85 be fe 5c 35 3f 3e c6 1d bd
       0.060072444 -0.26048338 0.7084502 -0.038519137
000340 12 24 8a be 0d 4a 28 bf d1 95 59 3d 54 d1 4c 3f
       -0.26980644 -0.6573799 0.05312139 0.8000691
000350 1a 2b 33 bf 0c bf 11 3d 14 b7 a9 3d e8 5b 01 bd
       -0.6998764 0.035582587 0.082868725 -0.03158179
000360 5f 33 c3 be ac 78 ba bd 9c 3c 69 be 33 8c 5d 39
       -0.3812513 -0.091050476 -0.22777027 0.0002112843
000370 96 10 36 be 6a 44 96 bd da 3c a0 3e 50 07 34 3e
       -0.17779765 -0.07337268 0.31296426 0.17580914
000380 4f 4c 86 be 77 ca 3e bf d0 de 8b 3e b6 ec d4 bd
       -0.26230094 -0.74527687 0.2731843 -0.103967115
000390 fc ab 6a bc ad ec b5 be 65 67 c2 bd 7b eb 62 be
       -0.014323231 -0.35532132 -0.09492377 -0.22160141
0003a0 ec e2 35 3f 72 5f 27 bf 4b 72 7c be 26 39 e6 be
       0.7104938 -0.65380013 -0.24652974 -0.44965476
0003b0 0d ff ed 3b de d1 6b 3c bc 51 14 3f 95 08 86 bd
       0.0072630704 0.014393298 0.57937217 -0.06544606
0003c0 6b eb 90 be 6c f4 04 bf ab e2 a3 be b8 be 3f 3e
       -0.2830461 -0.5193546 -0.3200887 0.18725097
0003d0 a1 2b 24 be fd 08 70 bf 51 84 6b bb 8c d8 8a be
       -0.16032268 -0.93763715 -0.003593702 -0.27118337
0003e0 01 ee bc 3e 8b 2f a8 3c fa b4 35 bf 23 bf 26 bf
       0.36900333 0.020530483 -0.70979273 -0.651354
0003f0 fd 20 00 bf ea f2 56 bd 62 0a 7c 3d 21 a3 3c 3f
       -0.50050336 -0.052477755 0.06153334 0.73686415

linear2.weight f4 [256, 256]
000000 5f fb 34 bf fc 78 88 3c ae 82 ec 3e 3c 87 a1 3d
       -0.7069606 0.016659252 0.4619345 0.07887122
000010 69 30 fb be e3 15 1a be f6 f7 8c be 1b 47 a6 be
       -0.49060372 -0.15047412 -0.2753293 -0.32476124
000020 22 c5 68 be 3c 34 30 be 64 8d 23 3e b2 fa 84 3e
       -0.2273145 -0.17207426 0.15971905 0.25972515
000030 db 65 58 3e 9c 4d b8 be 93 15 cb be 6b a0 04 bf
       0.21132605 -0.3599671 -0.39664897 -0.5180728
000040 06 97 f5 3d b6 27 14 3e fd 46 d3 3c ee a3 62 bd
       0.11991696 0.14468274 0.025790686 -0.055332117
000050 a5 bd 91 bd ae e2 8c be 57 0e 3a 3f f5 95 b0 c0
       -0.0711625 -0.27516693 0.7267813 -5.5183053
000060 35 c3 61 be 5a 2c 1f be ca 60 11 be 11 5b 5e 3e
       -0.22047122 -0.15544263 -0.14197078 0.21714427
000070 0b 80 b1 be 0b 91 18 be be e2 34 3f 97 73 72 be
       -0.34668002 -0.1489908 0.7065848 -0.23676907
000080 d4 1b 4a 3e 24 c1 06 be 86 75 53 bd f1 9d a8 bd
       0.19737178 -0.13159615 -0.05162575 -0.0823325
000090 37 a0 5e 3d 8d c8 31 be d2 f0 d5 3d 68 41 1f 3e
       0.05435201 -0.1736166 0.104463235 0.15552294
0000a0 b7 8e b6 3f 70 46 33 3d 9d 17 8c be 17 58 b4 bb
       1.4262303 0.043768346 -0.27361766 -0.005503665
0000b0 f0 87 97 3e ee 41 88 be 2f 6a 6f be dc 4a 51 bf
       0.295959 -0.266128 -0.2338035 -0.8175485
0000c0 c6 4c 3b 3d 47 c6 5b 3f c7 41 c7 be 63 f5 45 bd
       0.045727514 0.8584942 -0.38917372 -0.048329722
0000d0 9f 73 1f be 97 8b 07 be a2 d7 8d be d6 4b 78 3e
       -0.1557145 -0.13236843 -0.27703577 0.24247679
0000e0 92 c8 b1 3e d6 a4 fa 3e a5 5c 51 3c 65 9c 97 c0
       0.34723336 0.48953885 0.012778436 -4.737841
0000f0 70 29 8e 3e 4e 61 06 bd 16 08 fe 3d 46 6e b6 be
       0.2776599 -0.03280764 0.12403886 -0.35631007
000100 81 47 b2 3f 09 d6 75 bf d4 45 6e be 93 ef 3d 3e
       1.3928071 -0.96029717 -0.23268825 0.18548422
000110 94 b4 89 3d 4e f4 2e bf 34 d1 32 3d 66 32 16 be
       0.06723896 -0.6834153 0.043656543 -0.14667663
000120 f8 d4 f0 3e 71 10 9f 3d 8b b5 5a 3f 6e c9 f8 bd
       0.47037482 0.07766808 0.8543326 -0.12147795
000130 5d 14 f2 be 5b c8 bb be c7 dc 91 3d ca cb bc bd
       -0.4728116 -0.36676297 0.07122188 -0.09218557
000140 ac 24 b6 bc 89 ee 4f bf 06 d7 18 3f a5 34 67 3e
       -0.022234283 -0.8122335 0.597031 0.22578676
000150 14 92 61 bd b5 70 9e be e3 b9 83 3e ed b9 b4 3e
       -0.05507095 -0.30945364 0.25727758 0.352981
000160 0c 92 cd be fa ce 0a bf da 82 19 be 0c ba fc bd
       -0.40150487 -0.5422207 -0.14991322 -0.12340173
000170 3a b2 03 bf 1d f8 e8 be aa 73 8c bf 67 88 58 be
       -0.5144383 -0.45501795 -1.0972798 -0.21145783
000180 ee a0 26 bf 3a 07 4a 3e 4d a4 57 3d f7 59 9f be
       -0.6508931 0.19729319 0.052646924 -0.31123325
000190 a7 10 02 3e 22 8d d6 be c5 24 86 3d bf 11 a1 3f
       0.12701665 -0.4190455 0.06549982 1.2583541
0001a0 16 a6 d0 be 17 28 f2 be f0 cd 08 3e 4a 0e 6b 3c
       -0.40751714 -0.4729621 0.13359809 0.0143466685
0001b0 25 a8 e6 be 42 f5 24 3f 55 64 4a 3e 8e 20 93 3e
       -0.4505016 0.64436734 0.19764836 0.28735775
0001c0 eb fa c3 3d 51 b9 c5 bf 3a 62 bc 3d fc c3 90 3d
       0.09569343 -1.5447179 0.09198423 0.07068631
0001d0 32 ae 7c 3e 44 c3 0c 3e ce 6a 03 bf 2a af 45 3e
       0.24675825 0.13746363 -0.51334846 0.19305101
0001e0 0a f3 66 3e ba 15 b1 bc 7a 97 b5 bc 91 f0 96 3e
       0.2255365 -0.021616805 -0.022166956 0.29480413
0001f0 2e a7 8f 3d ed 69 5a be 93 b2 40 bf f6 dd b6 3e
       0.07014309 -0.2132947 -0.7527248 0.35716218
000200 f1 fa 23 3e be 4e 97 be f2 b8 db 3d 1b 46 fb bc
       0.16013695 -0.29552263 0.10728635 -0.030673077
000210 99 18 39 be dc b5 09 c0 8f f7 90 3d 0d 4f 5d be
       -0.1807579 -2.1517248 0.07078468 -0.21612187
000220 a8 00 e4 be 1c 6e 40 bf 5a a8 32 be 09 6c dc 3d
       -0.4453175 -0.75168014 -0.17447034 0.107627936
000230 4d e2 6d bc 58 4a 5b be 92 d6 11 be d3 2d 5c 3e
       -0.014519286 -0.21415079 -0.14242008 0.21501856
000240 6e b0 fa be 35 de 90 3d be 53 34 be a6 4e 9a bf
       -0.4896273 0.07073633 -0.1761007 -1.2055252
000250 6d 64 b8 3d 70 ca eb 3f 75 47 3e bd 80 fa 9c 3e
       0.0900353 1.8421154 -0.046454865 0.30659866
000260 1c 7e e2 bd 43 1f 92 3d 20 c4 8e be c6 d5 25 bf
       -0.1105921 0.07134869 -0.27884007 -0.6477932
000270 e0 69 fc 3d 2b 8d db bd 6b 2e d9 bd e1 aa a3 3d
       0.123248816 -0.10720285 -0.10604557 0.07991577
000280 cd 39 b7 3e 5e e3 40 bd c3 fd a9 3e 0c bc b1 bd
       0.35786286 -0.047091834 0.33201417 -0.08678445
000290 85 6d 72 3e 16 51 04 c1 05 e9 ac bf 7b 6e df be
       0.23674591 -8.269796 -1.3508612 -0.43638977
0002a0 39 34 8f 3d c6 6e 21 bd e1 86 f9 3f 6b c6 a5 3e
       0.069923826 -0.039412282 1.9494287 0.32377943
0002b0 88 2c e1 be b8 81 df 3d 91 07 8a 3e 10 fc 28 be
       -0.43979287 0.10913414 0.26958898 -0.16502404
0002c0 be 02 ae 3d a6 eb 72 be 41 7a 9b 3e 08 db f9 3e
       0.08496617 -0.23722705 0.3036671 0.4879992
0002d0 ad c4 53 be 10 98 25 3d f4 4a 90 3e 4d 82 a6 3d
       -0.20680495 0.04042822 0.28182185 0.08130322
0002e0 61 99 d3 3e c9 f5 0e bf 3b 90 2a be 50 74 11 3e
       0.41327956 -0.5584379 -0.16656582 0.14204526
0002f0 73 09 1b be 1f 08 5f be 00 1a f1 bd 39 ec e3 bd
       -0.15140323 -0.21780442 -0.11772537 -0.1112904
000300 73 ab 81 bb 47 27 3b 3e bd b5 17 bd 56 58 81 bc
       -0.003957206 0.18276702 -0.037038554 -0.015789192
000310 b9 2b ed bf 8b b2 f8 be 94 f0 41 3f 9a c7 ed 3e
       -1.8528968 -0.48573717 0.7575772 0.46441346
000320 d7 4d 91 be d1 d6 e4 3e cf ad 80 bf 07 5d f4 3d
       -0.283797 0.44695142 -1.0053042 0.11931806
000330 57 56 cf bd c1 21 b2 3d 82 8a 3c bc 60 7d eb be
       -0.1012389 0.08697844 -0.011507632 -0.4599409
000340 db b2 1b c0 b2 c6 20 be 30 cc a4 be 8f 68 98 3c
       -2.4327915 -0.15700796 -0.32187033 0.018604545
000350 03 b9 a4 3e 89 e3 b3 be fa 32 af be 07 16 df 3d
       0.32172403 -0.35134533 -0.3421858 0.10892873
000360 cb f7 52 3e 21 49 33 bf bb 94 c7 bd 13 13 7a 3e
       0.20602338 -0.7003346 -0.09745165 0.24421339
000370 ca dd 1a be 58 96 3a bf 65 d4 4b be c2 2d 82 3e
       -0.15123668 -0.72885656 -0.19905241 0.25425535
000380 85 ee b4 be f6 01 32 bf a6 1f e7 3d d6 64 1d be
       -0.35338226 -0.6953424 0.11285333 -0.15370497
000390 0d 64 0e bf 05 f7 92 3e 8b 75 02 bf c0 ab 4c 3e
       -0.55621415 0.28704086 -0.50960606 0.19987392
0003a0 47 24 60 3d 93 62 53 be 5b 09 13 bf de bf 48 3e
       0.054722097 -0.20643072 -0.5743615 0.19604442
0003b0 bb d1 95 bd 0e 20 71 bf 75 0d 09 be 00 83 56 3e
       -0.073153935 -0.94189537 -0.1338404 0.2094841
0003c0 34 72 dd 3d 95 b7 ef be 6b e0 9c bc 5b 22 b7 3e
       0.10812798 -0.4681975 -0.01914998 0.357684
0003d0 65 11 7e be a7 74 0e be 7b 2e 9a 3e 6e fa 8a bf
       -0.24811323 -0.13911687 0.30113587 -1.0857675
0003e0 56 41 52 3f 00 72 04 bf dc 97 8c 3d e2 39 95 3e
       0.82130945 -0.5173645 0.068649024 0.29145724
0003f0 ed 70 67 be 57 d2 d6 bf 86 ef 4e 3e 68 6e d6 3d
       -0.22601672 -1.6782941 0.20208558 0.10470277

linear2.bias f4 [256]
000000 d0 68 63 3e 92 91 09 3f d2 b6 3c be 68 09 f8 3e
       0.22207952 0.5373775 -0.18429115 0.48444676
000010 b6 b7 35 3f 34 1f 21 3f c6 6a 0a 3f 37 8c 08 3f
       0.70983446 0.6293824 0.54069173 0.5333895
000020 51 00 dd 3b a1 36 81 3e bd 2a 1f 3f 56 4c 1f 3f
       0.0067444225 0.2523699 0.6217459 0.62225854
000030 74 d3 34 3e be 06 08 3f 8f 99 3b be 6e dc 79 be
       0.17658788 0.5313529 -0.18320297 -0.24400494
000040 57 c1 aa bc 8b a1 c7 3e c2 07 62 be c7 75 9c bc
       -0.020844145 0.38990435 -0.22073272 -0.01909913
000050 0c c3 03 bf 47 14 a7 3e f7 1c cc be 8e 55 27 bd
       -0.5146949 0.32632658 -0.39865848 -0.040853076
000060 ef 43 a5 3d d0 4a 3d be 94 9d 1d be b4 ae 86 3e
       0.08069598 -0.1848557 -0.15392143 0.26305163
000070 81 70 2b 3e f2 5a b1 be 2a 3b 29 3f f9 e7 d1 3a
       0.16742136 -0.34639698 0.661059 0.0016014568
000080 32 71 09 be 9f 84 0f bd e1 d7 36 3f f8 4e 24 3f
       -0.13422087 -0.035038587 0.71423155 0.64182997
000090 53 b3 3c 3e 8f 0c 0e 3f 1f 2e 08 3f bd 94 20 3f
       0.18427782 0.5548791 0.53195375 0.62726957
0000a0 63 36 2d 3e cd 7a a3 3d f9 c4 04 be fb 82 d5 bc
       0.16915278 0.07982407 -0.12965764 -0.026063433
0000b0 ca 8a 21 be e3 96 a8 3d 25 30 04 3f f9 13 01 3f
       -0.157756 0.08231904 0.5163596 0.504211
0000c0 1e 34 88 bc 60 c6 7a be d9 88 1b be ee d8 cd be
       -0.016626414 -0.24489737 -0.15188922 -0.40204567
0000d0 e9 95 29 3d a7 37 05 3f 90 71 47 3e 7d 1d 0c 3f
       0.04140273 0.52038044 0.19476914 0.54732496
0000e0 d1 2b 83 3d d1 ab c5 be 3c 75 b4 bc 8d 51 09 3d
       0.06404842 -0.38607648 -0.022028558 0.03352504
0000f0 cc 36 04 be 85 f5 23 3d 84 41 97 be ce 99 f5 3e
       -0.12911528 0.040029068 -0.29542172 0.47968906
000100 67 f8 c3 3a a7 76 88 3e 83 59 a5 be 4f f4 4d bc
       0.0014951349 0.26653025 -0.32294855 -0.012570455
000110 16 33 21 bd 10 69 ff 3e 61 df e1 3c c3 76 27 3f
       -0.03935536 0.49884844 0.027572336 0.6541559
000120 6a 66 08 3f a6 f6 ba 3e 20 b4 d9 bc 48 40 5e 3b
       0.5328127 0.36516303 -0.026575148 0.0033912826
000130 f5 b9 45 3d da 18 9c bc 19 41 04 3f 58 d1 b2 3e
       0.048273046 -0.019054819 0.5166183 0.34925342
000140 79 15 77 3d 86 46 05 3f 23 9d 86 3d 60 67 32 3f
       0.060323212 0.52060735 0.0657294 0.6968899
000150 c2 a1 01 3f d8 39 13 3f d5 0f 81 be 15 eb df be
       0.5063745 0.5751014 -0.2520739 -0.4373404
000160 46 3b eb 3e e1 a6 ba 3d 7f f2 17 be 97 07 77 3e
       0.4594366 0.09113861 -0.14838599 0.24123989
000170 8c d9 4a bf 04 d5 2c 3e 3a 0b 27 3f 8c bb 84 be
       -0.792382 0.16878134 0.65251505 -0.25924337
000180 62 92 a9 3c d2 7c cb be 69 ed 7a be 30 87 2c 3f
       0.020699684 -0.39743668 -0.24504627 0.6739378
000190 78 2b c0 bd f7 71 47 be 51 e8 0b 3f d5 bf 62 3d
       -0.09383291 -0.19477068 0.5465136 0.055358727
0001a0 f7 23 0c 3f 5c 67 01 3f 5c 5d 04 3f 53 df a0 3d
       0.5474238 0.5054834 0.51704955 0.07855096
0001b0 7b 12 01 3f 2a ff 80 3e 8d bd f9 bc 06 23 c5 be
       0.50418824 0.25194675 -0.030485893 -0.38503283
0001c0 68 b1 55 3e 5c 27 a9 be 8b c1 46 3d 54 bd c9 3e
       0.20868456 -0.3303784 0.04852442 0.39402258
0001d0 4e f5 ab 3d 3a ac 8f bc 84 5f 0b 3f 52 0d 1a be
       0.083963975 -0.017538179 0.5444262 -0.15044144
0001e0 13 da ef bc 15 6d 16 3e 06 82 a8 bd 2d ae 0c bd
       -0.02927879 0.14690049 -0.08227925 -0.034345794
0001f0 fb b9 24 3f fd 8d ad bc 09 34 49 3b c2 5b b1 be
       0.64346284 -0.02118587 0.0030701181 -0.34640318
000200 08 84 a7 3e 22 22 32 3f cc bd 29 3d 40 5f 7e bc
       0.3271792 0.6958333 0.04144077 -0.015525639
000210 dd 1a b9 be 4c 6a 04 3f d6 65 1e 3e d0 0f 1d 3f
       -0.36153308 0.51724696 0.15468535 0.6135225
000220 a3 27 a4 3d a9 cb 9f 3e c1 15 c7 bc fd a3 a3 bd
       0.080153726 0.31210068 -0.024302365 -0.07990263
000230 05 fa 83 bd a0 27 05 3f 49 bd c6 be 82 f6 0e 3f
       -0.06444172 0.5201359 -0.38816288 0.5584489
000240 06 bf f3 3d fc 96 5c be e2 c4 f6 3e 35 39 dc bc
       0.11901669 -0.21541971 0.48197085 -0.026882747
000250 d6 b6 c0 bd 40 fd a2 be f7 6b 67 bd bf b8 19 bd
       -0.09409873 -0.3183384 -0.056499448 -0.037529703
000260 77 8f 3f bd 6c 1e ab 3e 8b 8f 4d 3c 80 15 8f be
       -0.046767678 0.33421648 0.01254643 -0.2794609
000270 19 dd be 3d 6c dc 3f 3e 37 69 7e be a1 21 55 3e
       0.09319515 0.18736428 -0.24844824 0.2081361
000280 5d 77 f4 bc 34 7d 81 3d 1f a7 f2 3e 24 33 d3 3c
       -0.029842073 0.06322709 0.47393128 0.025781222
000290 a2 1b 93 be 7f b1 05 3f 59 92 e4 be a9 d6 bb 3e
       -0.2873202 0.5222396 -0.44642904 0.3668721
0002a0 ff 5d 04 3f 13 1f 3d bc da 9a b7 bd 59 1b b5 3d
       0.51705927 -0.011543053 -0.089650825 0.08843107
0002b0 ed f2 8f 3d da fa 81 3b 23 31 0b 3f 13 a6 6f be
       0.07028756 0.0039666714 0.5437185 -0.23403196
0002c0 cf 8b 1e 3f 4e 54 87 be ed 6b 7c be 50 9e 40 3e
       0.6193208 -0.26431507 -0.24650545 0.18810391
0002d0 e9 65 98 3e 6c 89 a4 bd 2b f9 a2 bc 52 75 3a be
       0.2976525 -0.08034024 -0.019894203 -0.18208817
0002e0 ad 56 f2 bd 74 3b 3d 3e 0f 0a ca 3d dd 8a 64 be
       -0.11832938 0.18479711 0.098652 -0.22318597
0002f0 ab 48 1f be 08 27 a0 3e 61 11 ec be 2c b0 c1 3e
       -0.15555064 0.31279778 -0.4610701 0.3782972
000300 1d 84 d0 3d 7b 90 11 3e bf 7b 3b be 13 dc f4 3e
       0.101814486 0.14215271 -0.18308924 0.47824153
000310 fc 36 2d 3e 24 43 65 be 3f 1d 89 3e 91 42 af bc
       0.16915506 -0.22388893 0.26780125 -0.021394046
000320 f6 c6 b7 be 54 f9 09 3f 2b ed 03 3d b6 ed 4a 3e
       -0.35893983 0.5389607 0.032208603 0.19817242
000330 1e b4 23 3f 64 9e f3 3e f6 fb fa 3e d5 bd 6d be
       0.6394671 0.4758178 0.49020356 -0.23216946
000340 d3 dd 30 3e 1e d2 08 3d e9 62 80 3e 4a dd a4 bd
       0.17272119 0.03340351 0.25075462 -0.0805002
000350 f9 0c 87 bd 35 49 5f 3c 3e 66 9f 3e ed df a7 bd
       -0.06594271 0.013628294 0.31132692 -0.08197007
000360 a0 63 86 bc f3 2e aa be 19 4a eb bd eb 32 dd be
       -0.016404927 -0.33238944 -0.114887424 -0.4320291
000370 c4 c7 b6 3e 00 00 00 00 4d 4d 42 3c 4f 06 8e bd
       0.35699284 0.0 0.01185925 -0.06934797
000380 8e b0 ff 3d dc 2f ec 3e e5 61 03 be 7f 3a 38 3d
       0.12484847 0.46130264 -0.12830313 0.04497766
000390 30 8d 95 3e 47 87 f5 bd 29 f6 02 3d e9 94 96 bc
       0.2920928 -0.11988693 0.031973038 -0.018381553
0003a0 fd c4 c2 3c a5 6b 5b be 8b e8 cc 3d 6f 3d 7c 3e
       0.023775572 -0.21427782 0.100052916 0.2463281
0003b0 39 6e c9 3d ea e9 02 3f 8f f5 04 3f 2c 86 d4 bd
       0.098354764 0.51138175 0.5193719 -0.10377154
0003c0 06 8e b8 be a3 0b 79 bc de e4 ac bd 74 94 d4 3c
       -0.36045855 -0.015200528 -0.084420905 0.025949694
0003d0 db cf 55 3e 71 ec e7 be ba e9 59 be b8 ea 6d 3d
       0.20880072 -0.45297578 -0.21280566 0.058085173
0003e0 d3 c3 23 be 5b 78 37 3f 4f 86 0a 3f c9 29 b2 3e
       -0.1599267 0.7166802 0.5411119 0.34797505
0003f0 18 7f de bc 4f 11 02 3f b1 2c 46 bd 2c ca 04 3e
       -0.027160212 0.5080766 -0.048382465 0.12967747

linear3.weight f4 [1, 256]
000000 aa d0 77 bf 3c d7 40 be 61 42 d5 3e 20 9b db bd
       -0.9680277 -0.18832105 0.41652206 -0.10722947
000010 2b 47 0a bf 25 47 8d be 2a d4 5a be 43 23 fd be
       -0.54014844 -0.2759334 -0.21369997 -0.49440965
000020 f1 46 1b 3f a5 55 c9 be 77 6b 84 be d5 c1 3b be
       0.60655123 -0.39323154 -0.2586324 -0.1833566
000030 02 b6 e0 be 2f 71 05 be 11 66 83 3d f8 84 82 3e
       -0.4388886 -0.13031457 0.06415952 0.25492072
000040 2d 54 5c 3f 73 8b 19 be 76 bb 60 3e 95 be 03 3f
       0.8606594 -0.14994602 0.2194651 0.5146268
000050 9b e9 84 3f 9b 5a cd be 54 31 39 bf 8d 40 60 3e
       1.0383791 -0.4010819 -0.72340894 0.21899624
000060 67 11 5b 3f 60 b1 9d 3e e7 29 de 3e 93 45 e2 be
       0.8557343 0.3079939 0.43391344 -0.44193706
000070 3f fb 1b 3f 0c aa 92 3d ef ff 7d be 17 de 65 3e
       0.60930246 0.0716134 -0.24804662 0.22448002
000080 ce 53 56 bf 9d 8d 1d 3d a1 57 f7 be 23 b7 90 be
       -0.83721626 0.03846513 -0.48309043 -0.28264722
000090 58 92 f1 3e 93 2f 7b be 33 d5 11 be b4 0a b0 be
       0.47181964 -0.24529867 -0.14241485 -0.34383166
0000a0 c1 bb 11 3c 36 50 38 40 3c 2f 30 3e fd ea e1 3f
       0.008894862 2.8798957 0.17205518 1.7649838
0000b0 a8 82 aa 3e 02 43 22 3f 13 99 53 be 5e e6 17 be
       0.33302808 0.63383496 -0.20663862 -0.14833972
0000c0 ce d3 41 3d 1e 9d de 3d 02 5b 05 bf 63 6a 5f 3f
       0.047321133 0.108698115 -0.5209199 0.8727171
0000d0 f1 d1 0e 3f 48 64 d5 be 9a 6e 93 be d9 8e 41 be
       0.55789095 -0.4167807 -0.2879532 -0.18902148
0000e0 03 07 63 3f a5 1f 27 40 b0 d8 25 3f 4a b5 aa 3e
       0.88682574 2.6113064 0.64783764 0.33341438
0000f0 c3 01 3e 3d 0a 02 b5 3f 46 56 75 bf 40 57 06 bf
       0.0463884 1.4141247 -0.9583477 -0.5247688
000100 a4 73 27 3e a5 8e 0d bf 38 44 33 3d f2 93 d4 3e
       0.16352707 -0.55295783 0.04376623 0.41519123
000110 b9 4d ad 3e a9 bb 06 be ef 7f e6 3e 7b 83 b0 be
       0.3384836 -0.13157524 0.4501948 -0.34475312
000120 53 54 73 be c6 dd f2 be b7 fa 67 bd a9 ef 03 3f
       -0.23762636 -0.47434825 -0.056635585 0.5153757
000130 06 46 5b 3e 53 29 17 3d 1f 34 59 be b5 90 57 be
       0.2141343 0.036904644 -0.21211289 -0.21051295
000140 4c 41 02 40 7c 54 5e be fa ec 06 3f 7c c4 b1 be
       2.0352354 -0.21711916 0.5270535 -0.34720218
000150 7d 77 60 be 0b 83 9b be 73 8c ba 3e a6 fc 63 3f
       -0.21920581 -0.30373415 0.3643528 0.89057386
000160 37 49 a4 bd a3 6f 14 c0 b3 2c 35 3d 4a bc 7d bd
       -0.08021777 -2.3193138 0.04423208 -0.061947145
000170 70 a4 0f 40 d9 e0 11 bf 5e 6c 88 be 61 32 9c 3d
       2.2444115 -0.56983715 -0.26645178 0.076267965
000180 d8 1e da 3e 7c e7 0c 3f e8 8f ac 3e 2c d3 7c be
       0.42601657 0.5504072 0.33703542 -0.2468993
000190 0a 95 94 3e 7e fd 42 3d e2 5d 4b be ac 3b 43 3e
       0.29019958 0.04760503 -0.19860032 0.19065732
0001a0 59 54 a4 be 41 3d 17 be a1 7a 4f be ce 29 03 3f
       -0.32095602 -0.1476946 -0.20261623 0.51235664
0001b0 e2 8d f8 be 56 22 d4 be 6c f3 f2 3e 44 84 46 c0
       -0.48545748 -0.41432446 0.4745134 -3.1018229
0001c0 8e 15 cf be 9e 60 13 bf 72 e4 d5 3e 67 f2 c4 be
       -0.40446132 -0.575693 0.41775852 -0.38466188
0001d0 a2 45 21 3f 20 3c ec 3d 82 fc 56 be 91 10 1a 3e
       0.62996876 0.115349054 -0.20994762 0.15045382
0001e0 e3 1c cf 3d 5b c0 fc 3e a4 08 9a 3e b6 fc 03 3e
       0.101129316 0.49365506 0.30084717 0.1288937
0001f0 73 1b 41 be c2 77 22 3f 0d a3 84 3e 53 4c 43 b9
       -0.18858127 0.63463986 0.25905648 -0.00018625082
000200 a7 78 65 be 82 31 dc be ca 8d c1 3f fa 9e 30 3d
       -0.22409306 -0.4300652 1.5121396 0.043120362
000210 65 ce 18 c0 d1 ca 5e be 63 47 ef 3b 79 c9 2a be
       -2.3875973 -0.21757056 0.007302211 -0.16678418
000220 0a 2b 8d 3f 60 c1 80 be 33 10 51 ba 34 74 af 3e
       1.102876 -0.25147533 -0.0007975131 0.34268343
000230 ca 63 f4 3e dd 1d 67 be d0 1e 08 40 4f ea 5b be
       0.47732383 -0.22569986 2.1268806 -0.214761
000240 e5 47 00 3f c5 b9 13 3b cc 0d cb bd ad 62 62 bb
       0.501097 0.0022541147 -0.09914741 -0.0034543679
000250 23 62 3f 3e b5 da 8c 3e bb 4d 0f 3f b6 ef f3 bc
       0.1868978 0.2751061 0.5597798 -0.029777389
000260 3b 67 73 3f c4 a1 b5 be a6 cd 05 3f 84 4e 0d bd
       0.9507939 -0.3547498 0.5226692 -0.034498706
000270 d5 03 4b 3f 9f 3b b0 ba a2 31 3d 3e 5d 5f 7d bd
       0.7930272 -0.0013445503 0.18475965 -0.061858524
000280 e6 31 99 3e 6a db fb 3e 69 11 ab bd 8f cb f1 3e
       0.29920882 0.49190837 -0.0835293 0.47225615
000290 5d 28 01 bf 4a 4d df bd 73 00 55 bf f5 14 8a be
       -0.50452214 -0.109034136 -0.8320381 -0.26969114
0002a0 a4 0f 3a be 55 53 49 3e d9 fc 19 3e 51 aa 07 3f
       -0.18170029 0.19660695 0.1503786 0.5299426
0002b0 ea 38 5f 3f ac 99 1b 3f f1 da 7c be 61 c3 01 bf
       0.8719622 0.6078136 -0.24692895 -0.5068875
0002c0 65 27 e7 be 6d 7f ba 3e 8d 98 3b bf 2d f1 31 c0
       -0.45147243 0.36425343 -0.7327965 -2.7803452
0002d0 05 cc 2b be e0 3b 63 3f 0f 67 b2 3f 04 b5 35 3e
       -0.16777046 0.88763237 1.3937701 0.17744833
0002e0 8d f0 e2 be 2b 09 fd 3f 4a 29 95 3e 5f d6 50 3e
       -0.4432415 1.9768423 0.29133064 0.20394276
0002f0 c0 5d a4 3e 38 f3 20 bf 11 7c 90 3f 74 59 9a be
       0.32102776 -0.6287112 1.1287862 -0.30146372
000300 e8 75 dd 3e 06 8c e4 be ae 1c b8 3e 1d b6 4f be
       0.43254018 -0.4463808 0.3595938 -0.20284314
000310 c5 69 3a 3f 68 00 e6 bf 2d 85 b9 be 4b 94 a0 3e
       0.7281764 -1.7968874 -0.36234418 0.3136314
000320 25 6b 40 bf d5 c8 26 be f3 56 ef 3f b6 96 4a bf
       -0.7516349 -0.16287549 1.869841 -0.79136217
000330 db a5 20 be ed 82 1e bf 7e a2 e7 bd 9d 11 a5 3f
       -0.15688269 -0.61918527 -0.1131029 1.2896
000340 19 e5 cd be db c5 02 3f 5d 45 c7 be 5f ae b1 3e
       -0.4021385 0.51083153 -0.38920107 0.34703347
000350 c5 6f f7 3f 3d 3e ca 3e df 90 4e c0 d9 5b 0a 3e
       1.9330984 0.3950061 -3.2275922 0.135116
000360 49 14 d6 bd 57 ad 42 3e 2d b3 8c 3f 44 9b ab 3e
       -0.10453088 0.19011436 1.099218 0.33516896
000370 8e be a1 be 13 26 60 bd 59 15 90 bf 6b 87 e4 3e
       -0.31590694 -0.05472381 -1.1256515 0.44634566
000380 65 a9 17 3f 2a 8a 2c be ea 82 2b 3e 85 53 01 3f
       0.5924285 -0.1684958 0.16749159 0.50518066
000390 7e f6 14 40 c0 20 50 3f 6e fe 9c bf 19 dd 05 3b
       2.3275447 0.8129997 -1.2265146 0.0020425974
0003a0 36 92 d5 3e 5e 1a cf 3d 93 55 bd 3e 77 c7 bf 3e
       0.41713113 0.10112451 0.3697935 0.37456867
0003b0 d6 d0 1a bf 10 55 e3 bd 07 91 5a be c2 e1 be 3e
       -0.6047491 -0.11100209 -0.21344386 0.37281615
0003c0 b2 a5 79 bf d8 65 ed 3c 14 c1 a9 3e ab a8 05 3f
       -0.97518456 0.028979227 0.3315512 0.5221049
0003d0 2e 10 11 bf 32 aa 87 3e 8d 84 ed 3d 89 9f cb 3e
       -0.56665313 0.26497036 0.11597548 0.39770153
0003e0 1d 84 02 3f 94 e6 f5 be 28 44 21 be 4e 77 91 be
       0.5098284 -0.4802748 -0.15748656 -0.28411335
0003f0 4d ae da bb c0 46 32 be 1b 3f 08 3f 88 49 64 bf
       -0.0066736103 -0.17409801 0.5322129 -0.891747

linear4.weight f4 [256, 14]
000000 e4 fb 09 bf ac b9 59 3c 08 ea c0 3e 03 27 45 bc
       -0.5389998 0.0132888965 0.37678552 -0.012033227
000010 16 41 67 3e 6b 98 3f 3b 56 01 9a 3e 71 b2 83 be
       0.22583422 0.0029235135 0.30079144 -0.25722077
000020 c6 19 60 3f 56 86 fc be 32 ac 26 3e e2 9b 14 bb
       0.8753933 -0.4932124 0.16276625 -0.0022675921
000030 3f 42 93 bd b0 5a e3 3e 4b c1 02 bd 5f ef cd 3c
       -0.0719037 0.44405127 -0.03192262 0.025138555
000040 50 49 f7 3e c9 b9 a3 3c f5 6e fd bd 7f 52 3c bc
       0.4829812 0.01998605 -0.12374679 -0.011494278
000050 58 fe 4c 3d 26 19 7d bf 03 bb 7c 3e 5b 35 9e be
       0.05004725 -0.988665 0.24680714 -0.30900082
000060 61 8d 73 bd a2 30 ca 3d 83 bb 61 be c7 9c 2e bf
       -0.059461 0.09872557 -0.22044186 -0.68207973
000070 56 51 25 be cb 66 36 bf 48 00 a7 be 4e 80 db 3d
       -0.16144308 -0.712506 -0.32617402 0.107178316
000080 94 83 6a bf f9 ab 33 bd e0 70 4c be 23 75 f0 bf
       -0.9160702 -0.043865178 -0.19964933 -1.8785747
000090 62 14 da 3f 26 b6 4a bf 36 e5 bb be 98 62 d6 bd
       1.703747 -0.79184186 -0.36698312 -0.10468024
0000a0 0a b2 b4 3d d5 21 c2 bc ca 84 05 be d5 4d 84 bd
       0.08823021 -0.023697773 -0.13038936 -0.06460158
0000b0 f5 d5 55 3f 4d 79 6c 3d a8 b6 13 3d 1d 95 18 3c
       0.835296 0.05773287 0.036062866 0.009312895
0000c0 a8 57 4d 3d c2 85 28 bf a5 85 02 3f d6 f6 06 bf
       0.050132424 -0.658291 0.50985175 -0.5272039
0000d0 64 54 88 bd dc d0 11 3c 21 6d 33 be a6 c4 03 3e
       -0.06656721 0.008899894 -0.17522098 0.12867984
0000e0 a2 79 97 3e d3 34 36 c0 cc 70 75 be 88 48 65 3e
       0.29584986 -2.8469741 -0.2396881 0.2239095
0000f0 4b 34 b7 bf 77 98 12 bd 0d bd 23 3e ea e0 db bf
       -1.4312834 -0.035789933 0.15990086 -1.7178013
000100 68 2a 26 40 cd b8 6a be c7 27 9c be 2e 23 e3 bc
       2.5963383 -0.22922058 -0.30499098 -0.027726736
000110 c2 43 42 be 0a 6e 38 bd 80 62 e0 3e 5d 8f 32 3d
       -0.1897116 -0.045026816 0.4382515 0.043593753
000120 6a c2 ad 3e bf 78 d0 3d 4e 28 a0 be 3a 54 80 3c
       0.3393739 0.101792805 -0.3128075 0.015665162
000130 9f 15 27 3e 07 e5 1e be 49 8f 28 3e 30 b9 1d be
       0.16316842 -0.15517054 0.16460909 -0.15402675
000140 9a da de 3d ef 70 1c 3e 40 16 02 bf f0 3a f9 3d
       0.10881539 0.15277456 -0.508152 0.121694446
000150 8f 9d b5 be 03 e8 77 3e a2 03 90 bd 2d c6 84 3d
       -0.3547177 0.24209599 -0.07031943 0.064831115
000160 0f 8a ca be 5c de 09 bc f9 81 ca 3d 09 8a 12 bf
       -0.39558455 -0.008414831 0.098880716 -0.57241875
000170 31 10 80 3f dc 7b 31 3f bf 81 36 3d 84 e9 87 3d
       1.0004941 0.6932962 0.04455733 0.066363364
000180 57 59 09 3f 14 5d 75 3d 97 45 f1 3e f2 d0 af be
       0.53651947 0.05990322 0.47123405 -0.343391
000190 7c c9 88 be da 3d 0c 3e 3d a6 c5 bd 16 d3 73 3d
       -0.2671622 0.1369547 -0.09650848 0.05952748
0001a0 dd d6 56 3d 46 b8 d0 bd 57 35 8f bd 4a c6 15 be
       0.052451003 -0.10191397 -0.06992596 -0.14626423
0001b0 5e 05 e0 bd dc be 4a 3d a0 fe 1f 3f 1a 90 c8 3e
       -0.10938524 0.049498424 0.624979 0.3917244
0001c0 15 5f 6b 3e 75 df 0d bf b5 5e b3 3e 4b 89 ae 3e
       0.2298549 -0.55419093 0.35033193 0.3408912
0001d0 58 63 38 bf ad 32 68 bd 5f 80 4e be 22 a9 4e be
       -0.72026587 -0.056688953 -0.20166157 -0.20181707
0001e0 30 a1 09 3e c7 a4 16 bd f9 e5 6d be 35 2a 1c bd
       0.13440394 -0.036778238 -0.23232259 -0.03812619
0001f0 2f f7 83 be ef 52 64 3e 03 02 2a bf 42 90 78 be
       -0.25774524 0.22297262 -0.6640932 -0.2427378
000200 26 b1 92 3d 0d 39 3e be 7e a5 1f 3e 29 ca 7a bb
       0.07162695 -0.1857645 0.15590474 -0.003826747
000210 4d 29 c6 bc 67 3b a8 3e 81 6c 9c be 6d cc f7 bd
       -0.024189616 0.3285782 -0.30551532 -0.12099538
000220 63 c1 9b bd 5e 19 b9 bc 87 72 df 3d 8e 25 98 3d
       -0.07605245 -0.022595104 0.10910516 0.07429038
000230 85 44 a0 3f 72 57 d0 3e 3d a5 17 be 52 05 2d 3e
       1.252091 0.40691715 -0.14809127 0.16896561
000240 27 6e 2a 3e 1b cf ed bb cf 25 28 bf 31 16 8a be
       0.16643582 -0.007257355 -0.6568269 -0.26970056
000250 37 5f b0 3c 1f b4 e1 3d dd 43 13 bf 13 25 74 bb
       0.021529777 0.110206835 -0.57525426 -0.0037253543
000260 c3 83 48 3e a6 f4 a3 bd 18 c8 c2 be 92 69 b1 3d
       0.19581513 -0.08005647 -0.38043284 0.08662714
000270 60 27 1c bf 35 0c fe bd 91 d1 91 be 4b a0 b3 3d
       -0.6099758 -0.12404672 -0.284802 0.08770808
000280 f5 71 13 3e af 1c 9c be 9b e1 1b bf bf 95 02 3f
       0.1439894 -0.30490634 -0.6089112 0.51009744
000290 8a 33 af 3e 76 a8 94 bc bf d7 e9 be 0f 6d 81 bd
       0.3421901 -0.018146735 -0.45672414 -0.063196294
0002a0 b9 02 ae be 76 50 f7 bd db 5d 94 bf 3e ef 0f be
       -0.33986452 -0.120758936 -1.1591142 -0.14056107
0002b0 b1 90 df bd da 03 05 bd ae 7e fe bd b6 1c 84 bf
       -0.109162696 -0.032474376 -0.12426506 -1.0321262
0002c0 88 8e ed 3e 17 79 8b be 1d 66 81 bd 23 62 32 3e
       0.46397805 -0.27240822 -0.06318305 0.17420249
0002d0 d6 88 12 3e d6 fc 4d be 08 fe 99 3e fa f3 f4 3d
       0.14310011 -0.2011598 0.30076623 0.11960597
0002e0 5f fa 62 3e a5 c3 cb bd 46 7e 1e 3d b9 30 dc 3a
       0.22165821 -0.099494256 0.038694642 0.0016799188
0002f0 00 4b 30 be f1 1b d4 3e a9 9d 06 bf 80 30 03 3f
       -0.1721611 0.41427568 -0.5258432 0.5124588
000300 f1 fa c6 bc 75 6b c0 bd 26 78 d9 be 88 21 1a bf
       -0.02428958 -0.09395496 -0.42474478 -0.60207415
000310 e3 d2 c4 bd e4 9a 8b bf b9 14 1f be cf bc b9 3d
       -0.09610536 -1.0906644 -0.15535249 0.090692155
000320 79 2c 54 be 19 85 8b b9 e3 28 ef be 45 3f 90 bd
       -0.2072009 -0.00026611311 -0.46710882 -0.07043318
000330 55 a2 ba 3e 97 c2 76 be ae 00 08 bf df 91 d7 3c
       0.36451975 -0.24097668 -0.5312604 0.026314674
000340 1f 1e 21 3c b5 0e 2f bf 93 1e 7f 3d 2a 15 ab be
       0.009833842 -0.68381816 0.062285017 -0.33414584
000350 2b be 1a be 98 94 01 be 6f b2 e6 bd 11 ff e2 3c
       -0.15111606 -0.1265434 -0.11264502 0.027709516
000360 be 52 1a bd c9 84 a7 bd a5 9b 9d bb 75 b7 48 3e
       -0.037676565 -0.08179624 -0.004809814 0.19601233
000370 1e a4 ab 3c 70 6e 31 3c cd 23 5e 3c a4 7d 97 be
       0.02095228 0.010829553 0.01355834 -0.29588044
000380 a2 d7 c3 3e e7 b3 54 c0 a4 da ad 3d 08 e5 4d be
       0.38250452 -3.3234804 0.08488968 -0.201069
000390 e5 0b 0a bf 75 af 6c 3c d6 9b e9 be 22 59 ef be
       -0.539244 0.014446129 -0.45626706 -0.4674769
0003a0 4c 92 81 3f 34 1a 15 3d 50 21 cd be da f3 c5 bb
       1.0122771 0.036401942 -0.40064478 -0.0060410323
0003b0 72 0d 8d bd aa 3d 0b be ac e0 0a be c5 ab 6f 3c
       -0.0688733 -0.13597742 -0.13562268 0.014628355
0003c0 d0 73 11 3f 3a 4b a5 be 27 56 b9 be fb f2 05 3c
       0.5681734 -0.32283956 -0.36198542 0.008175607
0003d0 5a 4b a8 be 35 fc e7 be a1 66 fd 3e ee 18 b3 be
       -0.3286999 -0.45309606 0.49492362 -0.34979957
0003e0 1d e0 75 be 7a e4 8b bd c1 3c 95 be 6d 5c 7d 3e
       -0.24011274 -0.06830688 -0.29147914 0.24742289
0003f0 16 b0 d0 bd d6 fd 15 3d 9d a8 22 bf 6e 0e df bd
       -0.10189836 0.03661903 -0.63538533 -0.10891424

linear4.bias f4 [256]
000000 f5 a1 2f bf bf 3c cf be 1f 33 00 bf d8 06 41 bf
       -0.686065 -0.40476033 -0.50078005 -0.7540107
000010 d2 b6 1e 3d be 36 30 bd 91 5a 3e bd 69 1c c6 bd
       0.03874857 -0.043020956 -0.04647309 -0.096733876
000020 76 25 de be 94 11 8d 3e d6 40 93 be 0a 6e 3b bb
       -0.43387955 0.27552474 -0.28760403 -0.0028599524
000030 96 d0 30 bf 97 58 5a bd 0d 7c 57 3e 04 50 85 3e
       -0.69068277 -0.053307142 0.21043415 0.2603761
000040 82 8f 8b be 8f 2b a5 be 27 b3 8e 3d 58 13 07 bf
       -0.27257925 -0.32259795 0.06967764 -0.5276389
000050 02 60 2b bd 1f ec d2 be 08 bc 97 3e 6b 82 9b bc
       -0.041839607 -0.4119577 0.29635644 -0.018983087
000060 81 7f d0 bd 9d 6b 8a 3e 92 d0 28 be a2 da 6e 3f
       -0.101805694 0.27035227 -0.16485813 0.9330236
000070 dd f7 70 bd d4 34 08 be 66 0d 13 bf 16 33 34 bf
       -0.05883013 -0.13301402 -0.5744232 -0.7039045
000080 7e f2 4d bd b2 ae c9 be d3 3d 2f 3f 08 26 1c 3e
       -0.050280087 -0.39391094 0.6845371 0.15248883
000090 3b 97 2c bf 4c c0 c5 be 92 38 10 3f 2d 57 ae 3d
       -0.6741826 -0.38623273 0.5633632 0.08512721
0000a0 06 0b 45 bf 5d ee a9 be 99 e8 c0 be 0b 50 f0 bc
       -0.76969945 -0.3318967 -0.37677458 -0.029335042
0000b0 1f 77 dc be 10 eb 3c bf 0c 52 46 3f a6 72 23 bf
       -0.43059632 -0.73796177 0.77468944 -0.63846815
0000c0 4a 4d 4d bf 66 41 0f 3f 28 37 b0 bd 85 c9 a5 be
       -0.8019606 0.55959165 -0.0860427 -0.3238031
0000d0 df 79 4d bf aa c5 c0 bd 3b 0b 40 bf 91 12 3b bf
       -0.80264086 -0.094127014 -0.75017136 -0.73075205
0000e0 f9 6e 9e 3e 24 a9 13 bf 8c 1a 00 be 6e d5 b7 3e
       0.3094404 -0.57679963 -0.12510127 0.3590502
0000f0 47 e7 18 bd 5e 06 c5 3d 05 40 8b be 3b a8 21 be
       -0.03732994 0.09620355 -0.2719728 -0.15786831
000100 8d ca 00 bf 7f 8a 02 3f b3 a4 2b be 7f 67 48 bf
       -0.5030907 0.5099258 -0.16762047 -0.7828292
000110 d9 0a ff 3e ec ed 5a be d2 3d 3e bc 82 7e 45 bf
       0.49812964 -0.21379822 -0.011611419 -0.7714616
000120 81 a0 d8 3e db 1f 36 bf 4a 79 e8 3e 7d 48 fc be
       0.42309955 -0.7114236 0.45405036 -0.49274054
000130 f3 c6 2f bf 00 77 3c bf 8c e7 31 bf a3 da 6d be
       -0.6866295 -0.7361908 -0.6949394 -0.23227935
000140 a7 9c 3d bf 2a 23 96 3d af 81 b0 3d 53 1d a4 3e
       -0.7406716 0.07330926 0.08618485 0.32053623
000150 82 e6 4f 3d 95 2b 06 bf 7e fb c7 be 37 bf 55 bf
       0.05075694 -0.5241025 -0.3905906 -0.83494896
000160 7f 8a 5b bf ec 38 a0 bd c4 11 c1 3d e1 97 8e 3e
       -0.85758203 -0.07823357 0.09427217 0.2785025
000170 2f 79 25 bf cc 9d 83 3e 78 85 e6 3e 60 30 1f 3c
       -0.64638036 0.25706327 0.45023704 0.009716123
000180 aa 38 94 bd 71 5a ce bc ae ca 47 bf dc 6f 42 bf
       -0.0723737 -0.02518961 -0.7804364 -0.75951934
000190 69 20 fb 3e 84 ad 41 bf d5 e8 70 bd 43 f0 e6 3c
       0.49048164 -0.7565539 -0.058815796 0.028190738
0001a0 8c b4 58 3e 6f 35 1c bf c7 99 ba 3e a5 3c 62 3e
       0.21162623 -0.61019033 0.36445448 0.22093447
0001b0 58 62 bf be 8f 88 1c bf f0 05 0d be fa 22 31 bf
       -0.37379718 -0.6114587 -0.13771796 -0.69193995
0001c0 c4 24 19 bd 7f b2 92 3d f0 9b 3a bf dc b3 9a 3e
       -0.037388578 0.07162952 -0.7289419 0.30215347
0001d0 c0 74 3f bd c7 a9 3b 3f 1b 38 1d 3e 5b 6a 10 bf
       -0.0467422 0.73305935 0.15353434 -0.56412286
0001e0 5f af 13 3f ef bb 12 bf e1 be 08 be c9 a6 f9 bc
       0.5768947 -0.57318014 -0.13354065 -0.030475037
0001f0 d7 d5 f9 be d8 82 f6 bd 33 ea 95 be 2b 7c 83 be
       -0.4879596 -0.12036675 -0.29280242 -0.2568067
000200 96 16 35 bf fe 2a 9d 3d 0a f8 1a bf ef 8d 3b bf
       -0.7073759 0.07674216 -0.6053473 -0.7326345
000210 9a ad 18 bf f7 ee e4 bd ff ab bd 3d de 33 2e 3f
       -0.59639895 -0.111783914 0.09261321 0.68047893
000220 a4 2d 24 bf b1 1d a9 be 27 22 b3 be e3 d8 b5 3b
       -0.6413214 -0.33030465 -0.34986994 0.0055495366
000230 dc ef d3 3c 11 b7 91 3e 03 20 27 bf 9d c6 79 bf
       0.02587121 0.2845998 -0.6528322 -0.97568685
000240 7b 3e 8e 3e 9e 1c 77 be f7 d0 ae be 4d 24 0e bf
       0.27782044 -0.2413201 -0.34143803 -0.5552414
000250 c2 77 ef be ab 08 20 3d ac da e3 be 3f a3 c2 be
       -0.46771055 0.039070766 -0.4450277 -0.38015172
000260 f6 71 45 bf 8e 6c 02 be 6c fd 1b bf 84 e6 8c bc
       -0.77127016 -0.12736723 -0.60933566 -0.017199762
000270 d9 eb 50 be 16 ee 21 3d 82 ec 1d bf 95 59 7d be
       -0.20402469 0.039533697 -0.6168901 -0.24741204
000280 b5 4a 1b bf 70 90 2e bf 18 5c 61 3e 82 9e 8f be
       -0.6066087 -0.68189144 0.22007787 -0.2805062
000290 72 f3 0d bf f9 b9 27 3e 8a 86 18 be 08 06 2e bf
       -0.55449593 0.16379537 -0.14895073 -0.6797795
0002a0 3f a2 83 bf 58 cd 9c bd 6a e4 05 bd 9d df 0f 3e
       -1.0283889 -0.07656354 -0.032688536 0.14050145
0002b0 34 c7 35 bf 21 72 22 3d a3 04 af be e4 52 af be
       -0.71007085 0.039659623 -0.34183225 -0.34242928
0002c0 7e 64 ab be 78 b1 12 bf ed b1 4c bf 9f 32 cd 3c
       -0.33475107 -0.57302046 -0.79958993 0.025048552
0002d0 6e bf ef be 42 7b 58 bf 80 57 2e bf 07 63 73 bd
       -0.46825737 -0.84563076 -0.68102264 -0.05942061
0002e0 c9 a2 24 bf 79 d9 77 be 56 20 61 3e db 52 19 bd
       -0.6431089 -0.24204053 0.21984991 -0.037432533
0002f0 e9 b5 05 3f ab 07 b4 be 05 59 4d bf f9 ac 64 3e
       0.522307 -0.351621 -0.8021396 0.22331609
000300 03 29 02 bf 2b 5a 90 bd 19 8b ec 3e b6 d2 2a 3e
       -0.5084383 -0.07048448 0.46199873 0.16681942
000310 82 af dd 3c 6c fd 1c bf b8 1a 0f bd f6 c2 04 bf
       0.027061228 -0.6132419 -0.03493759 -0.51859987
000320 06 2c 24 bf b2 47 80 bf e8 d4 a4 bc de 9c b1 3e
       -0.64129674 -1.002188 -0.020121053 0.34689993
000330 8e 2b 52 bd 12 90 13 3e 01 0f 4a 3f c3 8c c9 3d
       -0.05131107 0.14410427 0.78929144 0.09841301
000340 10 7b 94 3d 69 73 9c be d6 75 25 3f 4b 8a d0 3d
       0.07250035 -0.305568 0.6463293 0.10182627
000350 e7 cb 39 bf 45 4d 7f bf 6a de 81 3e 14 19 0c bf
       -0.72576755 -0.9972728 0.25365 -0.54725766
000360 4b 8b e4 bd 19 2b 82 be fb 1b d3 bc a2 bd 23 bf
       -0.111593805 -0.25423506 -0.025770178 -0.6396123
000370 c3 fe 0f 3c 29 0c 55 bd 88 16 90 be dd 89 01 bf
       0.008788767 -0.05201355 -0.2814219 -0.5060099
000380 1a 7f 23 3f 85 42 7c bf 73 e8 20 bf 66 63 11 bd
       0.63865817 -0.98539 -0.6285469 -0.035495184
000390 ce 24 20 be e9 a3 94 be e2 f2 ab 3e d2 57 09 be
       -0.1563904 -0.29031304 0.33583742 -0.13412407
0003a0 71 34 b7 be a1 68 38 3c 2d dc 07 bf bb 4c 4d bf
       -0.35782197 0.011255414 -0.53070337 -0.80195206
0003b0 a6 9a 8a be 0a ad dd 3d 91 51 54 3b 62 1c 2f bf
       -0.27071112 0.1082402 0.003239725 -0.68402684
0003c0 5e 34 77 3d 03 02 57 be 19 4b 7d be 63 e8 5c bf
       0.060352676 -0.20996861 -0.24735679 -0.86292094
0003d0 9c 2b 1c 3f a6 e8 55 3e 3e f8 16 be 7d e5 45 bf
       0.6100404 0.2088953 -0.14743134 -0.77303296
0003e0 da 84 4d be 33 91 65 be d2 ca c0 3e bf e6 ff be
       -0.2007021 -0.2241867 0.3765474 -0.49980733
0003f0 b0 bd b1 bd d6 7e e0 be 18 e6 ab 3b 71 4f ca bd
       -0.08678758 -0.43846768 0.005245935 -0.098784335
