output/Quadrotor-run6/actor.pkl (torch, 283023 bytes, 8 tensors)

linear1.weight f4 [256, 12]
0	0xbd698627	-0.057012703
1	0xbd04182c	-0.032249615
2	0x3d9440b7	0.07238906
3	0xbdeca6a8	-0.11555225
4	0xbda8a554	-0.08234659
5	0xbd8b4f53	-0.06802239
6	0xbd6a0081	-0.057129387
7	0x3e074776	0.13210854
8	0xbb9cbb8d	-0.0047831
9	0xbdb51d83	-0.088435195
10	0x3d2dea3d	0.042459715
11	0xbc2e951e	-0.0106556695
12	0x3e16298b	0.14664285
13	0x3d2d2483	0.04227115
14	0x3dd3cbdf	0.1034162
15	0xbd34e190	-0.044160426
16	0x3c37671b	0.011194016
17	0x3dfaf6c1	0.12254096
18	0xbe08a4ef	-0.13344167
19	0xbde70043	-0.11279347
20	0x3d8b4003	0.06799319
21	0x3ddeeb04	0.108846694
22	0x3d3ab7c4	0.04558541
23	0x3d731c2e	0.059353046
24	0xbdfdf97b	-0.124011
25	0xbdbfa84e	-0.093582734
26	0xbd8c2476	-0.06842892
27	0x3e016fcd	0.12640305
28	0xbda987e6	-0.08277874
29	0x3dff8697	0.12476843
30	0x3dcd3c5d	0.10021279
31	0xbd015cbd	-0.031582583
32	0xbc4b6668	-0.012414552
33	0x3ca03dfb	0.019560805
34	0x3d4e24c9	0.05032805
35	0xbc2e05cf	-0.010621502
36	0x3d90c9d7	0.07069748
37	0xbe072f8e	-0.13201734
38	0xbcf054ce	-0.029337313
39	0x3d6a1db3	0.05715723
40	0x3d343399	0.04399452
41	0xbc334f65	-0.010944222
42	0x3d02896a	0.03186933
43	0x3d6de695	0.05808123
44	0xbd8b983f	-0.06816148
45	0x3e153fdb	0.1457514
46	0x3c5296bd	0.012853322
47	0xbcae2bdf	-0.021261154
48	0xbd961106	-0.07327466
49	0xbdccf7a6	-0.10008173
50	0x3de7117a	0.1128263
51	0x3e17ba0a	0.14817062
52	0x3d8d95ca	0.069133356
53	0xbbd3e898	-0.0064669363
54	0xbd8b0916	-0.067888424
55	0x3cd62c67	0.02614422
56	0xbd1926ff	-0.037390705
57	0xbd515e6e	-0.051115446
58	0x3d99a225	0.0750163
59	0xbe162d9e	-0.14665839
60	0x3c97c122	0.01852471
61	0xbe0f15b8	-0.13973129
62	0x3bd189e8	0.0063946135
63	0xbd28f952	-0.041253395
64	0xbd3b2953	-0.045693707
65	0x3dc0a69c	0.09406778
66	0x3d43fee8	0.04785052
67	0xbba13a2b	-0.0049202642
68	0xbdd9d8fd	-0.1063709
69	0xbdf7926a	-0.12088473
70	0x3d6d8636	0.05798932
71	0xbdef9efc	-0.11700246
72	0x3c7983c5	0.01522917
73	0xbd9e9798	-0.07743758
74	0xbdf6886e	-0.12037741
75	0xbd1926d0	-0.03739053
76	0x3bad9fd8	0.005298596
77	0xbb436f0d	-0.002982083
78	0xbdabc409	-0.08387
79	0xbdfc7b90	-0.12328255
80	0x3e17747b	0.14790528
81	0xbe05ffa9	-0.13085808
82	0x3d39e960	0.04538858
83	0xbe12c79a	-0.14333954
84	0xbddb496b	-0.10707363
85	0xbd87a558	-0.06623334
86	0x3c1e5162	0.009662958
87	0x3d80341e	0.062599406
88	0x3df44bc6	0.11928515
89	0x3bb0dd22	0.005397455
90	0xbdbff2ff	-0.0937252
91	0x3cca8e62	0.024726097
92	0x3d193eee	0.03741353
93	0x3d82e9da	0.0639226
94	0x3d450ed1	0.048109833
95	0xbc07e54f	-0.0082944175
96	0xbd854d3a	-0.065088704
97	0x3d5367c7	0.05161264
98	0x3c826c69	0.015920835
99	0x3c93a8f3	0.018024897
100	0xbd417bc7	-0.047237184
101	0xbe0c9c83	-0.1373158
102	0x3e111b36	0.14170536
103	0xbd4e7f7c	-0.050414547
104	0x3d977d23	0.07396915
105	0x3d7de118	0.061982244
106	0xbccbf110	-0.024895221
107	0x381aa86b	3.6873313e-05
108	0x3cde5e44	0.027144559
109	0xbdf36dd7	-0.11886185
110	0x3db328f6	0.08748047
111	0x3cb57b1d	0.022153432
112	0xbdd38c88	-0.103295386
113	0x3d99194d	0.07475529
114	0xbe0feb14	-0.14054519
115	0x3c556f7b	0.013027067
116	0x3caa893c	0.020817392
117	0x3d3311d6	0.04371818
118	0xbcc18f64	-0.023627944
119	0x3dfd05d7	0.123546295
120	0x3e0ed3ef	0.13948034
121	0xbd66e179	-0.05636737
122	0xbde2209c	-0.11041376
123	0xbd616e1d	-0.055036653
124	0x3c692637	0.014230303
125	0xbd96f485	-0.07370857
126	0x3d97f030	0.07418859
127	0x3e09d4d7	0.13460098
128	0x3d241a4d	0.040064145
129	0x3cdc093b	0.02685987
130	0x3ddae27c	0.1068773
131	0x3dc29991	0.09501947
132	0xbcdcdf74	-0.02696202
133	0x3b14c1b7	0.002269847
134	0xbda80f34	-0.08206025
135	0xbe1754be	-0.1477842
136	0x3dc91208	0.09817892
137	0x3d9567be	0.07295178
138	0x3d9d3dad	0.07677779
139	0x3dd15524	0.102213174
140	0x3d93286f	0.071854465
141	0x3e0e609a	0.13904038
142	0xbda634ae	-0.081155166
143	0x3dec5fe8	0.1154173
144	0xbd9c589a	-0.07634087
145	0xbb479bb9	-0.0030457808
146	0xbdfdea97	-0.1239826
147	0xbd7d1078	-0.061783284
148	0xbd9d6771	-0.076857455
149	0xbdc69a38	-0.09697384
150	0xbe13b1bb	-0.14423268
151	0xbe1487a8	-0.14504874
152	0x3c9bae33	0.019003963
153	0xbd2b3691	-0.041800085
154	0xbdac34c6	-0.08408503
155	0xbdd99fe9	-0.106262036
156	0xbd4f6227	-0.050630715
157	0xbd80fd9c	-0.06298372
158	0xbd077a0c	-0.033075377
159	0xbbcaba20	-0.0061867386
160	0xbda30f0b	-0.079618536
161	0x3d1fe560	0.03903711
162	0xbd240be0	-0.040050387
163	0x3aa6bd59	0.0012721225
164	0x3de0cdf2	0.10976781
165	0xbd5784ec	-0.052617
166	0x3e04bc67	0.12962495
167	0xbcad7fa6	-0.021179032
168	0xbd8a4fba	-0.06753488
169	0xbcb3bcc8	-0.021940604
170	0x3d3c33f3	0.04594798
171	0x3d153d94	0.03643568
172	0xbcfa81d6	-0.030579489
173	0xbd581d1d	-0.05276214
174	0x3d4c3b8c	0.049861476
175	0xbd613c1b	-0.05498896
176	0xbe0ba26d	-0.1363618
177	0x3cbf81eb	0.02337738
178	0xbe131445	-0.14363201
179	0xbcd95745	-0.026530871
180	0x3e03ad94	0.12859184
181	0x3da88844	0.082291156
182	0x3e162908	0.1466409
183	0x3e07a9dd	0.13248391
184	0x3db8eb89	0.090293
185	0xbd284b19	-0.041087244
186	0x3c513973	0.012770045
187	0x3e0cd839	0.13754357
188	0xbe10c179	-0.14136304
189	0x3db8c05d	0.090210654
190	0x3e0bdfcd	0.13659592
191	0xbd343e0f	-0.044004496
192	0x3d535c4c	0.051601693
193	0x3c1b9ec3	0.009498301
194	0xbdd0193c	-0.10161063
195	0x3e030796	0.12795863
196	0xbdedde4b	-0.11614665
197	0xbe175eee	-0.14782307
198	0x3de6d221	0.11270548
199	0xbca08a06	-0.019597065
200	0x3e04bbff	0.1296234
201	0x3d10c4ce	0.035343938
202	0xbd27a2c1	-0.0409267
203	0xbd9d2329	-0.07672722
204	0x3dc81b81	0.09770871
205	0xbe05aa23	-0.13053183
206	0xbb659da3	-0.0035036586
207	0xbe156717	-0.14590107
208	0xbe11b5f8	-0.14229572
209	0x3e03f442	0.12886146
210	0x3dd38c8d	0.10329542
211	0x3e0dcf25	0.1384855
212	0xbd32c09a	-0.04364071
213	0x3d53ba88	0.051691562
214	0x3c735c67	0.014853573
215	0x3ded1ef2	0.11578168
216	0xbdda018d	-0.10644827
217	0x3e036917	0.12833057
218	0xbd1675e1	-0.03673351
219	0x3e09de0f	0.13463615
220	0x3d9bf7a2	0.076155916
221	0xbd91fef1	-0.07128704
222	0x3e005453	0.12532167
223	0xbded5b9a	-0.11589737
224	0xbcdc703f	-0.026908992
225	0xbdedeb07	-0.116170935
226	0xbd9a1074	-0.075226694
227	0x3dc89952	0.097948685
228	0xbd670ccd	-0.056408692
229	0x3de93262	0.11386563
230	0xbd310503	-0.04321767
231	0xbdb0e2d5	-0.08637015
232	0x3d814791	0.06312478
233	0x3e10962f	0.1411979
234	0xbdb243f3	-0.087043665
235	0xbb9aacb8	-0.0047202967
236	0xbd453e7d	-0.048155297
237	0x3da2148b	0.079140745
238	0xbdda756f	-0.1066693
239	0xbd8e6528	-0.06952888
240	0x3dbcf051	0.09225524
241	0xbdfcac4d	-0.12337551
242	0x3c31de13	0.010856169
243	0x3debb479	0.11509032
244	0xbd43db0b	-0.047816318
245	0x3dbcd408	0.09220129
246	0x3dcedf07	0.10101133
247	0xbc864543	-0.016390448
248	0xbb26aaa6	-0.0025431304
249	0x3e0b0a31	0.13578106
250	0x3d11e8a4	0.035622254
251	0x3ba20f39	0.0049456623
252	0xbe011a3b	-0.12607662
253	0xbe0265ee	-0.12734196
254	0xbcdb0b0a	-0.026738662
255	0x3d187ff9	0.03723142

linear1.bias f4 [256]
0	0xba3959b2	-0.00070705556
1	0xba0dbbb7	-0.0005406695
2	0x3abc5086	0.001436726
3	0xba447ccc	-0.0007495403
4	0x399ff4cb	0.00030509228
5	0xbab12e78	-0.0013517877
6	0xba862691	-0.0010234882
7	0x3904c194	0.00012660614
8	0x37ac2cfb	2.0524943e-05
9	0x36fe8171	7.584859e-06
10	0xb986dcd0	-0.0002572299
11	0x399264c4	0.00027922366
12	0x395d5060	0.00021106144
13	0xb99054e8	-0.0002752908
14	0x396e3904	0.00022718689
15	0xb9812f5f	-0.00024640092
16	0x38898b02	6.558561e-05
17	0x3a348a7a	0.00068870897
18	0xb95201b5	-0.00020027797
19	0xba222ae1	-0.0006186199
20	0xba94b32a	-0.0011344899
21	0xba0b426b	-0.0005312326
22	0xb94b0cd8	-0.00019364373
23	0x3ac56a8d	0.0015061662
24	0x3984d2fe	0.00025334203
25	0xb8cf944c	-9.8981516e-05
26	0xba2a1b1e	-0.0006489026
27	0x38f76cd0	0.00011798146
28	0x39456593	0.00018825223
29	0xba57adab	-0.00082274777
30	0xba9cdf59	-0.0011968418
31	0x3a2c816c	0.00065805647
32	0xbac9f72c	-0.0015408746
33	0xba88d764	-0.0010440168
34	0x3a5db225	0.00084570266
35	0xba8278b5	-0.0009954186
36	0xba9d7592	-0.0012013188
37	0xb99caef5	-0.00029884992
38	0xba3f1414	-0.00072890637
39	0x39719ce3	0.00023041996
40	0xba80614e	-0.0009794624
41	0xba78c2bb	-0.00094894663
42	0xba704b74	-0.0009166517
43	0x3a319460	0.0006774124
44	0x3a88b736	0.0010430578
45	0xbadb73d2	-0.0016742891
46	0x390cfbb5	0.00013445209
47	0xba67e95f	-0.00088467257
48	0xb9ecb50d	-0.0004514832
49	0xbac1dd19	-0.0014790624
50	0xba12e29d	-0.0005603226
51	0xba9dcb04	-0.0012038653
52	0x3ac44a39	0.0014975733
53	0xb9ea9143	-0.00044740186
54	0x39aba632	0.00032739487
55	0x3a5e8564	0.00084885047
56	0x3ab74421	0.0013982096
57	0xba441b47	-0.0007480871
58	0x00000000	0.0
59	0x3a5ba238	0.00083783595
60	0xb9558f08	-0.00020366546
61	0x3a03e837	0.0005031856
62	0xb9fc4b54	-0.0004812131
63	0xb8dd167d	-0.0001054229
64	0x39a752e5	0.00031914483
65	0xba0a4e90	-0.0005275989
66	0x3941d675	0.00018485806
67	0xb9d94c9e	-0.0004144655
68	0xb88e4df8	-6.7856105e-05
69	0xbac0e871	-0.001471771
70	0xba4a0566	-0.0007706493
71	0x3a5bbee0	0.00083826296
72	0xba79e9ba	-0.0009533424
73	0xb9172e32	-0.00014417691
74	0x3a4630c1	0.00075603655
75	0x38c3b79e	9.332526e-05
76	0xba2379d0	-0.0006236108
77	0x39c98479	0.00038436407
78	0xba760d4a	-0.00093861355
79	0xba1d15d8	-0.00059923297
80	0x39f226ca	0.00046186737
81	0x3845fb17	4.7202306e-05
82	0xba1fcef4	-0.0006096207
83	0x38b39412	8.5629654e-05
84	0x3ab4a798	0.0013782857
85	0xba0878e3	-0.0005206002
86	0x3a8431f0	0.0010085683
87	0x38da092f	0.000103967606
88	0xb8a73c5c	-7.974423e-05
89	0xb9668c10	-0.00021986687
90	0x3a848a47	0.0010112011
91	0x392f56b1	0.00016721596
92	0xba6e4464	-0.00090891705
93	0x3a2319ce	0.0006221802
94	0xb957cff8	-0.00020581472
95	0xba9b8142	-0.0011864083
96	0xba9c9ea6	-0.0011949136
97	0x3a0e1361	0.0005419758
98	0x3a1810c6	0.0005800839
99	0x00000000	0.0
100	0xbaef9ac5	-0.0018280378
101	0x3a3f5cc6	0.0007299896
102	0x39adc621	0.0003314475
103	0x3a3c25cd	0.00071772636
104	0xba85c32d	-0.0010205262
105	0xb8136da0	-3.5149627e-05
106	0xba846310	-0.0010100324
107	0xba1602bd	-0.0005722454
108	0xb97e5ffd	-0.00024259086
109	0x391c677b	0.00014915869
110	0xb9535f8f	-0.00020158126
111	0xbb050399	-0.0020296334
112	0xb9c2a581	-0.00037125873
113	0xb9c9a236	-0.00038458564
114	0x3a82920d	0.0009961739
115	0x3a386733	0.0007034421
116	0xb990bc1a	-0.00027605967
117	0xba9aaaec	-0.0011800206
118	0xba84d351	-0.0010133778
119	0xb85eaf44	-5.3092153e-05
120	0xb79ac55a	-1.845013e-05
121	0xbad231e3	-0.0016036596
122	0x39e586f7	0.0004377884
123	0xb896c388	-7.188978e-05
124	0x37a31a38	1.9443323e-05
125	0xba0582ff	-0.00050930673
126	0xba13882d	-0.0005627897
127	0xba85007a	-0.0010147237
128	0x39e1cdf8	0.00043068803
129	0xba05bcff	-0.000510171
130	0x38af9a1b	8.373355e-05
131	0xb9e71f01	-0.00044082853
132	0x3aa841d5	0.0012837002
133	0x3a3ffe23	0.0007323941
134	0xb9ec1f2e	-0.00045036658
135	0xba31e889	-0.00067866646
136	0xbaa984d7	-0.0012933266
137	0xb9101aaa	-0.00013742843
138	0xb9cf0595	-0.00039486276
139	0x394f5c46	0.00019775433
140	0xb9cf2db0	-0.00039516157
141	0x39edbd58	0.00045345235
142	0x3a3c2b01	0.0007178039
143	0xba211228	-0.0006144368
144	0x394f99b9	0.00019798325
145	0x3827e142	4.002569e-05
146	0xba791b9e	-0.00095027115
147	0xbaa938a6	-0.0012910559
148	0xb8f9203f	-0.000118792515
149	0x3a26aee5	0.0006358459
150	0x3993f39c	0.00028219528
151	0x3ab87d55	0.0014075438
152	0xba99bb4a	-0.001172879
153	0x39a8fd08	0.0003223198
154	0x3981ce47	0.00024758486
155	0xba7d216e	-0.00096561655
156	0x3a1bcec0	0.0005943589
157	0xb918f088	-0.00014585454
158	0x39ea91e2	0.0004474065
159	0x3a599010	0.000829936
160	0xb7bb30e8	-2.231491e-05
161	0x3ab1491c	0.0013525817
162	0x3985ca92	0.00025518663
163	0xbaf69f5f	-0.0018815807
164	0x398c0e25	0.0002671342
165	0xb9a65d18	-0.00031731348
166	0xb98071a8	-0.00024498743
167	0x3acc5994	0.0015590661
168	0xbadb6613	-0.0016738795
169	0xb9978e0d	-0.000289068
170	0xba4544c4	-0.00075252005
171	0xb9ed28b1	-0.0004523448
172	0xba3613bb	-0.0006945689
173	0xba66765d	-0.0008791441
174	0x3a47cc9a	0.00076217356
175	0x3a7da5fd	0.0009675918
176	0xba5d9102	-0.0008452089
177	0xba93216a	-0.0011225168
178	0xb9844a2e	-0.0002523227
179	0xba63b678	-0.0008686553
180	0x3982523c	0.00024856802
181	0xbabe9d00	-0.0014542639
182	0x39da0f5a	0.00041591638
183	0x39cc3ff9	0.00038957575
184	0x3a406838	0.00073397486
185	0xba896948	-0.0010483647
186	0xb9cc7c31	-0.00039002442
187	0xba878a6d	-0.0010340937
188	0xb95bcffb	-0.00020962946
189	0x39a69be3	0.00031778132
190	0x3a854dac	0.0010170243
191	0xba3dbe4b	-0.00072381337
192	0xb8f65002	-0.00011745097
193	0xba2d21fb	-0.000660449
194	0xb985b014	-0.00025498925
195	0x3a3af15b	0.00071313017
196	0xba624ccd	-0.000863266
197	0x3a6e127c	0.0009081734
198	0x398a8224	0.00026418373
199	0x38e40109	0.0001087208
200	0xba987897	-0.0011632618
201	0x39da33d2	0.0004161881
202	0xba1c4128	-0.0005960637
203	0xba7a6aa6	-0.0009552635
204	0xba578301	-0.000822112
205	0x3a278031	0.00063896464
206	0x3aef50b6	0.0018258307
207	0xba25f1ed	-0.00063303
208	0xba5e1a84	-0.0008472579
209	0x3a73f8ed	0.0009306807
210	0x3969e980	0.00022307597
211	0x39bf29c9	0.0003646149
212	0x39ae90c1	0.00033295716
213	0x39812233	0.00024630278
214	0x3ab5bbcd	0.0013865173
215	0xb9665dfd	-0.00021969523
216	0xba747bcb	-0.0009326308
217	0xba00b833	-0.00049102603
218	0x39ced04f	0.00039446584
219	0xba00cb43	-0.0004913101
220	0xb80c1edc	-3.340734e-05
221	0xb88abce0	-6.6155335e-05
222	0xbac588c7	-0.001507067
223	0x3a846bee	0.0010102966
224	0x37fa40c9	2.983249e-05
225	0x39894116	0.0002617917
226	0xbacb0afd	-0.0015490946
227	0x3b1d0023	0.002395638
228	0x3a912934	0.0011074902
229	0x3a2fefa6	0.00067114306
230	0xbb0ed238	-0.002179278
231	0xba36d196	-0.000697398
232	0x39b2cfb1	0.00034105548
233	0x3a2b6b79	0.0006539147
234	0x39c30eee	0.00037204422
235	0x381b5689	3.7035472e-05
236	0xba9d4adf	-0.0012000463
237	0x3a4841cc	0.0007639199
238	0xb9b42d8c	-0.0003436621
239	0xb8d54a61	-0.000101704856
240	0xbaa2f709	-0.0012433241
241	0x3922b0e6	0.00015515424
242	0xb8b8e432	-8.8163084e-05
243	0xbab9661c	-0.0014144811
244	0x3a4f41ce	0.0007906229
245	0xbac42d87	-0.0014967181
246	0x3981fff4	0.00024795497
247	0x38142fb3	3.5330373e-05
248	0x3ad36225	0.0016127272
249	0xb9626a39	-0.0002159261
250	0x38baab24	8.9010486e-05
251	0xba3e3845	-0.00072563096
252	0xbaa21ea5	-0.0012368752
253	0x3a9d56a7	0.0012003974
254	0xb8a07755	-7.651622e-05
255	0xbab166ba	-0.0013534643

linear2.weight f4 [256, 256]
0	0xbd354923	-0.0442592
1	0x3c97b753	0.018520033
2	0x3bd06224	0.0063593555
3	0x3d27d259	0.040972088
4	0xbc55b52a	-0.013043681
5	0xbd03c80a	-0.032173194
6	0x3dc88c2c	0.09792361
7	0x3d518e9c	0.051161394
8	0xbd753390	-0.059863627
9	0xbd3745ab	-0.044744175
10	0xbdabf0f7	-0.0839557
11	0x3db760b9	0.08953995
12	0x3da7fe7a	0.082028344
13	0x3d8e4b9d	0.06948016
14	0x3bbe4a41	0.0058071916
15	0xbdb82c5d	-0.089928366
16	0xbdc158be	-0.09440754
17	0xbdbe8afc	-0.09303853
18	0xbdc8b486	-0.09800057
19	0xbd32d481	-0.04365969
20	0x3d1d9ff9	0.03848264
21	0xbc98910b	-0.01862385
22	0x3d7a91ad	0.061174084
23	0x3d66bf61	0.056334857
24	0x3d8d8b93	0.06911387
25	0xbdaf07b8	-0.08546394
26	0x3b419a95	0.00295416
27	0xbdb57625	-0.08860425
28	0xbb9eb4fb	-0.004843352
29	0x3dd36250	0.10321486
30	0x3c5b9207	0.013401515
31	0xbd3d9410	-0.04628378
32	0xbdd33d1d	-0.10314391
33	0xbd2deb84	-0.042460933
34	0xbd323429	-0.043506775
35	0x3c9d4eb9	0.019202577
36	0xbaa58490	-0.0012628008
37	0xbd703ca8	-0.058651596
38	0xbd9e04d5	-0.077157654
39	0xbd97194a	-0.073778704
40	0xbddb25eb	-0.10700592
41	0xbd25ba38	-0.040460795
42	0xbdaf682e	-0.085647926
43	0x3b510f12	0.0031899852
44	0x3dafc64c	0.08582744
45	0x3ca165f4	0.019701935
46	0xbd81cdcf	-0.06338083
47	0x3dbeb0cd	0.09311066
48	0xbd0b4b2d	-0.03400724
49	0x3d7e160b	0.06203274
50	0x3d506408	0.050876647
51	0xbd7daec0	-0.061934233
52	0xbd15970f	-0.036521014
53	0x3d326fc1	0.043563608
54	0xbdb75c99	-0.089532085
55	0xbce623c3	-0.028093224
56	0x3d0f0a55	0.034921963
57	0x3c1d09a4	0.009584818
58	0xbd114daf	-0.035474475
59	0x3d87cb61	0.06630588
60	0x3c56b841	0.013105453
61	0x3c2c3dca	0.010512779
62	0x3d5cab14	0.05387409
63	0xbdb7c5a9	-0.089732476
64	0x3c59d92b	0.013296406
65	0x3cd83a71	0.026395055
66	0x3cae8bd5	0.021306911
67	0x3b90d447	0.0044198367
68	0xbd0c73ae	-0.03429001
69	0xbdc9c2fc	-0.098516434
70	0xbc76005b	-0.015014733
71	0xbc1aeae8	-0.00945542
72	0x3db749c7	0.08949619
73	0xbd2b5f77	-0.04183909
74	0x3d8dbd8d	0.069209196
75	0xbd96edb8	-0.0736956
76	0xbd30f29f	-0.04320013
77	0x3c1671f3	0.009182441
78	0xbdb80171	-0.0898465
79	0xbdcc1683	-0.09965231
80	0x3da79b8a	0.081839636
81	0xbdcca3f0	-0.09992206
82	0x3d44d56e	0.048055105
83	0xbd3d5f8b	-0.046233695
84	0x3dbca849	0.09211785
85	0xbdb00168	-0.08594018
86	0xbc950fb4	-0.018195964
87	0x3d8bac69	0.06819994
88	0x3d8efcca	0.069818094
89	0x3d131b73	0.03591485
90	0x3d8d7df9	0.06908793
91	0xbd0f0e1e	-0.034925573
92	0xbc0d6c92	-0.008631842
93	0xbc2d9101	-0.010593654
94	0xbd8de368	-0.0692814
95	0xbd01e119	-0.03170881
96	0xbd24373a	-0.04009173
97	0xbdb322f9	-0.08746905
98	0x3a82bbfc	0.0009974237
99	0xbd6208cd	-0.055184174
100	0xbd71fe35	-0.05908032
101	0x3d9b50fb	0.07583805
102	0xbdb2dd0e	-0.08733569
103	0xbc98f798	-0.01867275
104	0x3d23aa0a	0.039957084
105	0x3d4bd011	0.049758974
106	0x3daf0edc	0.08547756
107	0x3d081534	0.033223346
108	0x3dae6154	0.085146576
109	0xbd9ed3b8	-0.07755226
110	0x3d15f857	0.03661379
111	0xbcd8ab57	-0.026448889
112	0xbd37ffad	-0.044921566
113	0xbd926c1e	-0.07149528
114	0xbd651b29	-0.055934105
115	0xbdbb4184	-0.091433555
116	0xbcebd4fc	-0.028788082
117	0xbd78cbf4	-0.06074138
118	0xbb18ab81	-0.0023295584
119	0x3dcc46b2	0.099744216
120	0x3cc0a86b	0.023517808
121	0xbdd4e91c	-0.103960246
122	0xbdc4598c	-0.09587392
123	0x3d8ce0bf	0.068788044
124	0xbdbe2d6c	-0.09286007
125	0x3d534bf6	0.051586114
126	0xbdd7ca38	-0.10536617
127	0xbdc1c081	-0.09460545
128	0xbdbd714c	-0.09250125
129	0x3beb283d	0.0071764276
130	0xbd9f11b5	-0.07767049
131	0x3d977070	0.073944926
132	0x3ca00755	0.019534746
133	0xbdd958d0	-0.10612643
134	0xbdb8ba8d	-0.09019957
135	0xbd8bfb38	-0.068350255
136	0x3da8ad4e	0.0823618
137	0xbd9f5efa	-0.07781787
138	0x3d9bfd96	0.07616727
139	0xbdb57b1d	-0.088613726
140	0x3daedf5f	0.085386984
141	0x3cc83379	0.024438607
142	0xbd6490ac	-0.055802032
143	0xbdbdf9bb	-0.09276148
144	0xbddbbea5	-0.10729722
145	0xbda81768	-0.082075894
146	0xbd6f52b0	-0.058428466
147	0xbd34c82c	-0.04413621
148	0x3d957658	0.07297963
149	0xbd2dcb34	-0.042430118
150	0xbd706ffc	-0.058700547
151	0xbddada2e	-0.10686146
152	0x3d29e1a8	0.04147497
153	0x3dc5bf06	0.096555755
154	0x3d3862b0	0.04501599
155	0xbd39cd2d	-0.045361686
156	0xbb643a9c	-0.0034824973
157	0x3d8fc15c	0.07019302
158	0x3dbb4e00	0.09145737
159	0x3da36078	0.07977384
160	0xbdb07f2a	-0.086180046
161	0xbd134837	-0.03595754
162	0xbd9de596	-0.07709806
163	0xbd796a7e	-0.060892574
164	0xbd674182	-0.056458957
165	0x3c709b1a	0.014685417
166	0xbdab721d	-0.08371375
167	0xbd581f07	-0.052763965
168	0x3dd0e5d7	0.102000885
169	0xbdb4f38e	-0.08835517
170	0xbdacb3cb	-0.0843273
171	0x3d97b42c	0.07407412
172	0xbd236822	-0.03989423
173	0xbd60ca72	-0.054880567
174	0xbc9e4bb5	-0.01932321
175	0xbdb3a197	-0.08771055
176	0x3d617f66	0.055053137
177	0xbd85bc44	-0.065300494
178	0xb9fea8a9	-0.00048572317
179	0xbb9af76f	-0.0047292034
180	0x3d74d4a9	0.05977312
181	0x3c453add	0.01203796
182	0x3db2a639	0.08723111
183	0x3c5ff9a6	0.013670361
184	0x3bee8aea	0.0072797434
185	0x3d0797c6	0.033103727
186	0xbd9d0111	-0.07666219
187	0x3d7302c9	0.059328828
188	0xbca5f958	-0.020260498
189	0xbd945120	-0.07242036
190	0xbd414b9d	-0.04719125
191	0xbd511cab	-0.05105273
192	0x3d2744db	0.04083715
193	0xbd44540a	-0.04793171
194	0xbc5f4aa4	-0.013628636
195	0x3c340ef6	0.010989895
196	0xbd02553f	-0.03181958
197	0x3c72ec79	0.014826887
198	0x3d6dd789	0.05806688
199	0x3d8b1490	0.06791031
200	0xbd9deffb	-0.07711788
201	0x3d958be7	0.07302075
202	0xbd0f3cbf	-0.03497004
203	0x3d4b2285	0.049593467
204	0x3c6dd466	0.014515972
205	0x3d528d86	0.0514045
206	0xbddb8f7a	-0.10720725
207	0x3d171ef7	0.036894765
208	0x3d4aa0cf	0.049469765
209	0x3db77d1a	0.08959408
210	0xbd94a15d	-0.0725734
211	0x3da7a488	0.08185679
212	0x3ca29f8f	0.019851474
213	0xb9ba7562	-0.00035564142
214	0xbdb0d0c8	-0.08633572
215	0x3d76b41b	0.060230356
216	0x3ce6e3f7	0.028184874
217	0xbd2a6934	-0.041604236
218	0xbcfaa1e6	-0.030594777
219	0x3d899d3c	0.06719443
220	0xbdd52697	-0.10407751
221	0xbdc570aa	-0.096406296
222	0xbd477c81	-0.04870272
223	0x3d6d2f0e	0.057906203
224	0xbb3c7c1a	-0.0028760494
225	0xbc70c8c4	-0.014696304
226	0xbd03ffbb	-0.032226305
227	0xbdcaef81	-0.09908963
228	0x3d0fcb6e	0.035106115
229	0x3dc12196	0.09430234
230	0xbdd088cb	-0.10182341
231	0x3d68d6cf	0.056845482
232	0x3dbcbd2e	0.09215771
233	0xbca37be5	-0.019956538
234	0xbda8bd61	-0.08239246
235	0xbcac9648	-0.021067753
236	0x3cebf6c9	0.0288042
237	0xbdd78312	-0.105230466
238	0x3dcd959b	0.100383006
239	0xbd668394	-0.056277826
240	0x3dbcd7c9	0.09220845
241	0xbd46383b	-0.04839347
242	0xbc219dff	-0.009864329
243	0x3da94fd5	0.0826718
244	0x3be83db0	0.007087432
245	0x3d73e914	0.059548452
246	0x3d97f998	0.07420653
247	0x3d196f8c	0.037459895
248	0xbd1d4728	-0.038397938
249	0xbd8a92a2	-0.06766249
250	0xbbb4ce23	-0.0055177375
251	0xbd160c46	-0.0366328
252	0x3cbf4837	0.023349864
253	0x3cc876cc	0.02447071
254	0xbc4aa28b	-0.012367855
255	0xbdc7ea5e	-0.09761499

linear2.bias f4 [256]
0	0xbadab72a	-0.0016686667
1	0xb99f5943	-0.00030393348
2	0x3a8752c7	0.0010324352
3	0xba2e3b4c	-0.0006646409
4	0xba82480b	-0.0009939683
5	0xba7ae837	-0.0009571346
6	0xba3167ed	-0.00067675003
7	0x3a9fa931	0.001218116
8	0x3ab29812	0.0013625643
9	0x3a1fcaf1	0.0006095609
10	0xb9b4ce78	-0.00034486107
11	0xb908d09e	-0.00013047687
12	0x00000000	0.0
13	0xb880932c	-6.1309285e-05
14	0xb9b8e674	-0.00035266916
15	0x3aa6c08e	0.0012722181
16	0xba28c5a7	-0.0006438144
17	0xb9c83a14	-0.00038190244
18	0x394920a6	0.00019181016
19	0xba3749c2	-0.0006991887
20	0x3970af2e	0.00022953443
21	0x00000000	0.0
22	0x3a3dfb74	0.0007247247
23	0xb9dd3c58	-0.00042197364
24	0xba49bef6	-0.0007695997
25	0x39782c81	0.00023667702
26	0xba94d25b	-0.0011354195
27	0xba8311f8	-0.0009999862
28	0xba2636df	-0.0006340574
29	0x3a7120ee	0.00091983273
30	0xbaa354ba	-0.0012461164
31	0x00000000	0.0
32	0xba3f8a18	-0.00073066493
33	0xb93e8b66	-0.00018171742
34	0xb741312e	-1.1515147e-05
35	0x00000000	0.0
36	0xba1f0787	-0.00060664903
37	0xba54f62e	-0.0008123842
38	0x385f51e6	5.3243617e-05
39	0xba87c715	-0.0010359014
40	0x00000000	0.0
41	0xba87d994	-0.0010364526
42	0xba3c7f8e	-0.0007190638
43	0xbad407de	-0.0016176661
44	0xba281c3d	-0.0006412899
45	0x396e9f17	0.00022756714
46	0xba97af6b	-0.0011572664
47	0x00000000	0.0
48	0xb9215ee7	-0.0001538951
49	0x39947df2	0.00028322596
50	0xba3f2449	-0.00072914787
51	0xba82caf9	-0.0009978703
52	0x388ac796	6.6175286e-05
53	0xb88f20ab	-6.824856e-05
54	0xb7be0792	-2.265329e-05
55	0x39d717a4	0.0004102561
56	0x39803621	0.00024454392
57	0xba8f2b4c	-0.0010922938
58	0x3a70e397	0.0009189187
59	0xba8fc53d	-0.0010968816
60	0xba653a2c	-0.0008744325
61	0xba0c3ee9	-0.00053499505
62	0xb9045152	-0.00012618795
63	0x3a534cfd	0.00080604834
64	0x3a3ba448	0.00071579637
65	0xb7089fc2	-8.143428e-06
66	0x3a7aa8ee	0.00095619156
67	0xbab3c930	-0.0013716575
68	0xb9cdba5c	-0.00039239496
69	0x3a9cb3f4	0.0011955486
70	0xba864b14	-0.0010245764
71	0xba18a1da	-0.00058224576
72	0x3a308647	0.0006733876
73	0xba401b04	-0.00073282444
74	0xb92d2255	-0.00016511355
75	0xbaa4062e	-0.0012514049
76	0x3a731497	0.00092727825
77	0x3a9f9e39	0.0012177891
78	0xb947b1dd	-0.00019044378
79	0xb9058d65	-0.00012736542
80	0x35fe0744	1.8926589e-06
81	0x3a0fd19d	0.0005486252
82	0x39e28d21	0.00043211228
83	0x00000000	0.0
84	0x393e264a	0.00018134076
85	0xba2ff0b7	-0.00067115895
86	0x39013b64	0.00012324523
87	0xb9a38e76	-0.00031195924
88	0x00000000	0.0
89	0x3a0fd918	0.00054873666
90	0xb94f3f95	-0.00019764745
91	0xbad99b42	-0.0016602057
92	0x397dee4e	0.00024216736
93	0x39c85abb	0.00038214572
94	0xb869713c	-5.5656987e-05
95	0xba69968e	-0.0008910679
96	0xbae5ef95	-0.0017542714
97	0xba99fc27	-0.0011748121
98	0x00000000	0.0
99	0xba92fb49	-0.0011213805
100	0x3a218ad5	0.000616235
101	0xb73b2a98	-1.1155986e-05
102	0x00000000	0.0
103	0x39b2fdd7	0.0003413993
104	0x398c6523	0.00026778234
105	0x38e1a12a	0.00010758855
106	0x3aaf1ec3	0.0013360608
107	0xb9930bbb	-0.00028046765
108	0x3a139c63	0.00056309084
109	0xb99c5592	-0.00029818394
110	0x3a740f16	0.00093101093
111	0xb9b366f6	-0.00034218252
112	0x391d9412	0.00015027847
113	0xba80d740	-0.0009829774
114	0xba39b70f	-0.0007084468
115	0xb9a31cc3	-0.00031111212
116	0x39133abb	0.00014040891
117	0x3a9cc334	0.001196003
118	0x39d0a90b	0.00039798798
119	0xb81cbc37	-3.7368587e-05
120	0x39c471fc	0.00037468958
121	0xbb24b5e6	-0.0025132834
122	0x3a3f48a7	0.0007296898
123	0x39a9c559	0.00032381227
124	0xba7bc611	-0.00096044043
125	0x39ecc0f6	0.00045157195
126	0x3a32572e	0.0006803152
127	0xbaa6e7d2	-0.0012733883
128	0x3960ced7	0.00021439359
129	0xba418b10	-0.00073830876
130	0xba11aa51	-0.000555669
131	0x37d24f42	2.5070858e-05
132	0x398f657a	0.0002735069
133	0x386237a7	5.393443e-05
134	0x00000000	0.0
135	0x39f6b2d1	0.00047054005
136	0x3a369ce3	0.0006966127
137	0xb916e5c1	-0.00014390705
138	0x3a96f122	0.0011515955
139	0xba824952	-0.0009940064
140	0xbaab4e39	-0.0013069577
141	0x3a5f7869	0.00085247174
142	0xba042b8f	-0.0005041891
143	0x39e1f968	0.00043101166
144	0xb9a7f22f	-0.00032033163
145	0x39b7b558	0.00035039592
146	0xba87836f	-0.0010338853
147	0xba52e12d	-0.0008044418
148	0x3a703da7	0.00091644604
149	0xb988f5a5	-0.0002612296
150	0xb8dc0493	-0.000104912695
151	0x3a589dce	0.0008263261
152	0xb9f1d280	-0.00046123937
153	0xb9cc6611	-0.00038985958
154	0x39930a2e	0.0002804561
155	0xba4af9e9	-0.0007742928
156	0xb9c14875	-0.00036865813
157	0x00000000	0.0
158	0x00000000	0.0
159	0x3aab6578	0.0013076505
160	0xbabfe713	-0.0014641009
161	0xba7ab567	-0.0009563774
162	0x3aad1954	0.0013206401
163	0x3a70e625	0.00091895676
164	0xb97365ef	-0.00023212259
165	0x00000000	0.0
166	0x3ab007d8	0.0013430072
167	0x00000000	0.0
168	0x37403c60	1.1458149e-05
169	0xba5f73eb	-0.0008524048
170	0x3a45b286	0.00075415557
171	0xbaba2fce	-0.0014204921
172	0x3ad102b0	0.0015946236
173	0xba3c3779	-0.0007179897
174	0x3ac76cf8	0.001521497
175	0x3a241b84	0.00062602037
176	0xba87dfac	-0.0010366342
177	0xba6c5b1d	-0.00090162625
178	0xb7a57775	-1.972516e-05
179	0x3a0b5b08	0.0005315994
180	0x3a899a74	0.0010498301
181	0x381210ae	3.4824647e-05
182	0x3a529159	0.0008032523
183	0x3940e5c8	0.00018396147
184	0x3a3f0ee9	0.00072882936
185	0x3a156c6a	0.0005700054
186	0xb9a34703	-0.0003114269
187	0xb9999c7a	-0.00029299018
188	0x39b15e5f	0.00033830383
189	0xb9e50045	-0.00043678485
190	0xb8c9031a	-9.5850046e-05
191	0xb98474bc	-0.00025263976
192	0x3a04700a	0.00050520955
193	0xb795ea58	-1.7871309e-05
194	0xb9814e59	-0.0002466317
195	0xba469f2e	-0.000757682
196	0x3a87662e	0.0010330135
197	0xb90ff89b	-0.00013730155
198	0xbad8979d	-0.0016524676
199	0xb99dfdd1	-0.00030134481
200	0xb65743cc	-3.207696e-06
201	0xba8cabaa	-0.0010732312
202	0x3a2e1c10	0.0006641755
203	0x00000000	0.0
204	0xb9c7dd72	-0.00038121227
205	0xbab2cf96	-0.0013642188
206	0xbb14496b	-0.0022626768
207	0xba8f683c	-0.0010941098
208	0x39da541a	0.0004164286
209	0xbab80a8c	-0.0014041229
210	0xbae4d80e	-0.0017459409
211	0x3a134aba	0.000561874
212	0xb9ab9ed6	-0.00032734004
213	0x37aa4741	2.029876e-05
214	0xb970496e	-0.00022915538
215	0xba33f257	-0.00068644196
216	0xba5d92fa	-0.0008452382
217	0x35fa922b	1.8668992e-06
218	0x00000000	0.0
219	0x3a5e3d3c	0.00084777526
220	0xbaa4ee1f	-0.0012583173
221	0x394e0cf7	0.0001965052
222	0x3a99fdbd	0.0011748594
223	0xba8b463e	-0.0010625792
224	0xba85602e	-0.0010175759
225	0x373e7f30	1.1354496e-05
226	0x39cfa4d2	0.00039604917
227	0xb8c43c9b	-9.357297e-05
228	0xba82493d	-0.000994004
229	0xba7883df	-0.00094800995
230	0xb915b8aa	-0.0001427854
231	0xb8c97df8	-9.6078904e-05
232	0xbab2dda8	-0.0013646381
233	0xba8a0a3e	-0.0010531617
234	0x3ab6f7a6	0.0013959303
235	0xb903a0d0	-0.00012553041
236	0x3887791b	6.459859e-05
237	0x3968b7aa	0.00022193664
238	0xba4de95d	-0.0007854903
239	0xbad61198	-0.0016332148
240	0xb9ca1e79	-0.00038551146
241	0xba80378e	-0.0009782182
242	0xb9ad018a	-0.00032998278
243	0xb9ec9947	-0.00045127628
244	0x39df5113	0.0004259428
245	0xb9a0c2d0	-0.00030662725
246	0x391ed396	0.00015146876
247	0x39fc5a2a	0.00048132363
248	0x3a1eda39	0.00060597394
249	0x3a66f8e9	0.0008810894
250	0xb9bee1f0	-0.0003640796
251	0x3ad2ec76	0.0016092199
252	0x3a8b299a	0.0010617257
253	0xb968543c	-0.00022156624
254	0x395a0eeb	0.00020795657
255	0xbaec4930	-0.0018027183

mean_linear.weight f4 [2, 256]
0	0xbda0c584	-0.07850173
1	0x3da64260	0.08118129
2	0x3dbd4f0d	0.09243593
3	0xbdbad6f4	-0.0912303
4	0xbd52c9ad	-0.051461864
5	0xbdfa7e21	-0.122310884
6	0xbdca82d3	-0.09888234
7	0x3e0b8090	0.13623261
8	0x3de6cf54	0.112700135
9	0xbddb606b	-0.1071175
10	0xbd4c2835	-0.049843032
11	0x3d4dc943	0.050240766
12	0x3ddf6e6c	0.10909733
13	0xbd47d9fc	-0.04879187
14	0xbda150de	-0.07876752
15	0x3df353e7	0.118812375
16	0x3d9e2b29	0.07723076
17	0xbd08385e	-0.03325688
18	0x3d185370	0.037188947
19	0xbe015dfd	-0.1263351
20	0xbb6945d0	-0.003559459
21	0x3d00b735	0.03142472
22	0x3d927cdf	0.071527235
23	0xbd8178fc	-0.06321904
24	0xbe0b2c28	-0.13591063
25	0x3def3b50	0.11681235
26	0x3d9edb64	0.07756689
27	0xbdacb68a	-0.08433254
28	0x3d50da63	0.05098952
29	0x3cf9d6fb	0.030498018
30	0xbdb9c0f7	-0.09070008
31	0xbdc859db	-0.097827636
32	0x3c48ef47	0.012264079
33	0xbceb0488	-0.028688684
34	0x3c391c6a	0.011298278
35	0x3dfe4f0b	0.1241742
36	0x3c9d0afb	0.019170275
37	0xbd3b527f	-0.04573297
38	0xbde438e2	-0.11143662
39	0x3af9d37b	0.0019060218
40	0xbe0ce857	-0.13760506
41	0xbe004cc4	-0.12529284
42	0xbd70d0c9	-0.058792863
43	0xbdf57d4a	-0.119867876
44	0x3e10f52f	0.1415603
45	0xbdcad717	-0.099043064
46	0xbd9ca399	-0.07648391
47	0x3cb06211	0.021531137
48	0x3d96b9f0	0.073596835
49	0xbe148e69	-0.1450745
50	0xb983b48d	-0.00025120788
51	0xbc169d3e	-0.009192763
52	0x3c678f43	0.014133277
53	0x3deff864	0.117172986
54	0x3e0f7feb	0.1401364
55	0x3cd7d30a	0.026345748
56	0x3da937ca	0.08262594
57	0xbdc687c8	-0.09693867
58	0x3de13834	0.10997048
59	0xbc6a2b33	-0.014292526
60	0xbc95e920	-0.01829964
61	0x3e035b77	0.1282786
62	0xbd809419	-0.062782474
63	0x3dbbb6ca	0.091657236
64	0x3dc0b594	0.09409633
65	0xbd3680c4	-0.044556394
66	0x3dea170e	0.114301786
67	0x3e0998a0	0.13437128
68	0xbcc1462b	-0.023593029
69	0x3df33187	0.11874681
70	0xbdfa2a63	-0.12215116
71	0xbd9bef38	-0.07613987
72	0x3df46afb	0.119344674
73	0x3dd5c874	0.10438624
74	0xbc880419	-0.016603516
75	0x3cc8eaf9	0.024526106
76	0x3dc68936	0.0969414
77	0x3c8a301b	0.016868642
78	0x3dd76ccc	0.10518798
79	0x3b54c78c	0.0032467572
80	0xbdc13bbe	-0.09435223
81	0xbe11e6c0	-0.1424818
82	0xbc29cf2b	-0.010364334
83	0x3df7a4f9	0.12092013
84	0x3cdb6c32	0.02678499
85	0x3d6a3124	0.05717577
86	0x3d58f243	0.052965414
87	0xbda4814a	-0.080324724
88	0x3dbfc998	0.09364623
89	0x3db7c67f	0.08973407
90	0x3c8909e0	0.016728342
91	0xbde093db	-0.10965701
92	0xbe197a60	-0.14988089
93	0xbc56e25f	-0.0131154945
94	0x3d01963d	0.03163742
95	0x3d8a5c15	0.067558445
96	0x3dc0b8a7	0.0941022
97	0xbe184101	-0.14868547
98	0xbe000d3c	-0.12505049
99	0x3d0ee624	0.034887448
100	0x3d79fc57	0.061031666
101	0x3d26856c	0.040654585
102	0xbe143de7	-0.14476739
103	0xbddea538	-0.10871357
104	0x3dc79f64	0.09747198
105	0xbd604c31	-0.05476016
106	0x3dae6c3f	0.0851674
107	0x3e14acd9	0.14519061
108	0x3d3d72f1	0.046252195
109	0xbd631dc3	-0.055448305
110	0x3db9e8b8	0.09077591
111	0xbd3007ac	-0.042976066
112	0xbd84c780	-0.06483364
113	0xbd7f88f7	-0.06238648
114	0x3d2d4225	0.04229941
115	0xbdabd396	-0.08389966
116	0x3cf342e7	0.029694987
117	0x3dc8c78a	0.09803684
118	0xbcc102e7	-0.023560954
119	0x3e1750a8	0.14776862
120	0x3d539e8b	0.05166487
121	0x3e0ff593	0.14058523
122	0x3e008c9e	0.12553641
123	0xba56a617	-0.00081882015
124	0xbe1142fd	-0.1418571
125	0x3e12087f	0.14261054
126	0x3dbdf0ce	0.092744455
127	0xbdee7360	-0.116431
128	0x3ca09dac	0.019606434
129	0x3d316d26	0.043316983
130	0x3ce1c531	0.027559849
131	0xbdeeb96c	-0.1165646
132	0x3cf001c1	0.029297711
133	0x3c88e0b0	0.016708702
134	0xbddf9253	-0.10916581
135	0x3dea265f	0.114331
136	0xbd276645	-0.040869016
137	0x3d75c0ef	0.05999845
138	0x3d5eaf92	0.054366656
139	0xbd8bc260	-0.068241835
140	0x3d285c98	0.04110393
141	0xbd8ac830	-0.06776464
142	0xbd1d8b61	-0.038463
143	0x3da8f56e	0.08249937
144	0xbdf1dcf3	-0.11809721
145	0xbd829156	-0.06375377
146	0xbe0f94f2	-0.14021662
147	0xbba0c0e4	-0.004905807
148	0x3dbbdced	0.091729976
149	0xbd5e0987	-0.054208305
150	0xbd58c33e	-0.052920572
151	0xba9b7cd7	-0.0011862767
152	0xbd5b5ff8	-0.05355832
153	0xbc358ee8	-0.011081435
154	0xbbc7f0ba	-0.006101695
155	0xbc1fcc87	-0.009753353
156	0xbdb05afd	-0.08611105
157	0xbe0ce3f4	-0.13758832
158	0xbcb4b50d	-0.022058988
159	0xbcc06205	-0.02348424
160	0xbda27e2d	-0.07934222
161	0x3db23b2f	0.087026946
162	0x3c842569	0.01613112
163	0x3e0f8186	0.14014253
164	0xbdf2b805	-0.11851505
165	0x3c2276f0	0.009916052
166	0x3e11a0e6	0.14221534
167	0xbd37187a	-0.044701077
168	0xbdd61e86	-0.10455041
169	0xbe0e1b73	-0.13877659
170	0x3dc18566	0.09449272
171	0xbdd8c337	-0.10584109
172	0x3dc37487	0.0954371
173	0xbdc43569	-0.095805
174	0x3e0ef635	0.13961108
175	0x3df52bdc	0.11971256
176	0xbe091ca1	-0.13389827
177	0x3d4c55de	0.049886577
178	0x3bd458eb	0.0064803264
179	0x3c801493	0.01563481
180	0xbd160cb0	-0.036633193
181	0xbdc859d8	-0.09782761
182	0x3d5eb104	0.054368034
183	0xbb9d2624	-0.0047958065
184	0x3dd0cf3a	0.10195775
185	0x3dc9bf73	0.09850969
186	0x3e10fa94	0.14158088
187	0xbd013501	-0.03154469
188	0x3dd1c6b0	0.10242975
189	0xbcb38c74	-0.02191756
190	0xbda4eb12	-0.080526486
191	0xbc8f0bb6	-0.017461639
192	0xbdc3e394	-0.095648915
193	0x3e0bb262	0.13642266
194	0xbdd852d5	-0.10562674
195	0x3db0f14d	0.086397745
196	0xbcc49841	-0.023998382
197	0xbd836ba1	-0.06417013
198	0xbd9f0640	-0.07764864
199	0xbd4195a4	-0.04726185
200	0xbd61932a	-0.055071987
201	0xbe0a5256	-0.13507971
202	0x3dc389f9	0.095478006
203	0xbe079d80	-0.13243675
204	0xbd9c3195	-0.076266445
205	0xbd13e7d7	-0.03610977
206	0x3e104b84	0.14091307
207	0xbe103acb	-0.14084928
208	0xbca2b787	-0.019862903
209	0xbd9194a0	-0.07108426
210	0x3cd4c7fc	0.025974266
211	0x3d9e7828	0.07737762
212	0x3c86d9ec	0.016461335
213	0x3de45836	0.111496374
214	0xbdb73985	-0.08946518
215	0xbdac10b7	-0.084016256
216	0x3d7019bc	0.058618292
217	0xbd8e6029	-0.06951935
218	0xbe01b4a1	-0.1266656
219	0x3e0a73c3	0.13520722
220	0xbe07c19b	-0.13257448
221	0x3df2a43e	0.11847733
222	0x3dd7491c	0.105119914
223	0xbd7951ee	-0.06086915
224	0xbc2ae8cd	-0.010431481
225	0x3df5e968	0.12007409
226	0xbd0ff6ec	-0.035147592
227	0xbd9efd07	-0.07763105
228	0xbdb497ca	-0.08818014
229	0x3dd9e02e	0.10638462
230	0x3c263fa0	0.010147005
231	0xbd351e10	-0.044218123
232	0xbdad6e85	-0.084683456
233	0x3d0d632e	0.034518413
234	0x3d48cf13	0.049025606
235	0x3d0b37dc	0.03398882
236	0xbda7ae31	-0.08187521
237	0x3d38f211	0.045152728
238	0xbdd0b033	-0.10189857
239	0x3d55d49a	0.052204706
240	0x3ccac439	0.02475177
241	0x3dd8625c	0.105656356
242	0xbe103fdc	-0.1408686
243	0xbd53f8b5	-0.051750857
244	0xbde54ee7	-0.1119669
245	0x3db87e96	0.09008519
246	0xbdbb4369	-0.09143717
247	0x3df49a07	0.11943441
248	0x3e101811	0.1407168
249	0x3dd8020c	0.105472654
250	0xbdc55fae	-0.0963739
251	0x3dcf0f46	0.10110335
252	0x3e058d48	0.13042176
253	0x3d58181d	0.05275737
254	0xbe1b1be3	-0.15147357
255	0xbbbb7970	-0.0057212636

mean_linear.bias f4 [2]
0	0x3a888931	0.0010416863
1	0xb94eeda1	-0.00019734215

log_std_linear.weight f4 [2, 256]
0	0x3d1b2512	0.03787715
1	0x3db7c4ad	0.0897306
2	0x3e0457bf	0.12924097
3	0xbdf2d545	-0.11857084
4	0xbd05233f	-0.032504316
5	0xbdaf6274	-0.085637
6	0xbc34b836	-0.011030247
7	0x3d394a5d	0.045236934
8	0x3bdd6fad	0.0067576976
9	0xbc0f8885	-0.008760576
10	0x3d9ad5ef	0.07560336
11	0xbdbd5cfa	-0.092462495
12	0x3d6dbc94	0.05804117
13	0x3d0c6000	0.03427124
14	0x3d4eae14	0.050458983
15	0x3e1138db	0.14181845
16	0x3def8b4c	0.11696491
17	0xbdd307fb	-0.103042565
18	0xbe197fd5	-0.1499017
19	0x3c72fda5	0.014830981
20	0x3e049b5a	0.12949887
21	0x3d868fa5	0.06570367
22	0xbdf22c46	-0.11824851
23	0x3d1f99e9	0.03896514
24	0xbc664a26	-0.014055764
25	0xbe17386a	-0.14767614
26	0xbcb561fd	-0.022141451
27	0x3dc9dc44	0.098564655
28	0xbbd98d18	-0.006639134
29	0x3de67e85	0.112546004
30	0x3d1f66f9	0.03891656
31	0xbc2307a8	-0.009950556
32	0xbd2d77a9	-0.042350445
33	0x3d20e740	0.039283037
34	0x3d877709	0.06614501
35	0xbd31afc5	-0.043380518
36	0x3e0ca1f9	0.13733663
37	0x3d95367a	0.07285781
38	0xbd19bf1a	-0.037535764
39	0x3da83277	0.082127504
40	0x3cac2575	0.021013955
41	0x3d769b59	0.060206745
42	0x3d9efadc	0.077626914
43	0xbc94deff	-0.01817274
44	0x3c285451	0.010274009
45	0x3dd860c8	0.105653346
46	0x3d8089d3	0.06276288
47	0xbc4d128c	-0.012516629
48	0xbe1b5406	-0.15168771
49	0xbde1ef0f	-0.11031925
50	0xbc2b124c	-0.010441374
51	0xbda9e26b	-0.08295139
52	0xbda3387c	-0.07969758
53	0xbd1c01da	-0.038087703
54	0x3d8b5104	0.06802562
55	0xbd898304	-0.06714442
56	0x3d309965	0.04311504
57	0x3cc4f2e3	0.024041599
58	0x3ddcdd26	0.10784368
59	0xbd44b410	-0.048023283
60	0x3de1a436	0.11017649
61	0x3da5e567	0.08100396
62	0x3de3b992	0.11119379
63	0xbd439ffd	-0.04776
64	0x3d24d45e	0.04024159
65	0x3e056b60	0.13029242
66	0xbd948e00	-0.07253647
67	0xbcd0f778	-0.025508627
68	0xbdb1c010	-0.08679211
69	0x3dc93488	0.09824473
70	0x3e0ba5d0	0.13637471
71	0xbd99aef9	-0.075040765
72	0x3bdc9908	0.00673211
73	0x3de1a8bf	0.11018514
74	0x3d9ad35d	0.075598456
75	0xbde43d1d	-0.11144469
76	0x3e086cf8	0.13322818
77	0x3d706970	0.058694303
78	0xbdedb421	-0.116066225
79	0xbd30defa	-0.043181397
80	0x3b45c50d	0.0030177266
81	0x3d935968	0.07194787
82	0x3dc11305	0.09427456
83	0x3d842ea9	0.06454212
84	0xbd6012c9	-0.054705415
85	0xbcc29fae	-0.023757782
86	0x3da9246d	0.08258901
87	0xbdad227b	-0.08453842
88	0xbd5b1e72	-0.05349583
89	0xbdcde52a	-0.10053475
90	0x3e0f721c	0.14008373
91	0x3e1295fb	0.14315026
92	0x3ddf9caa	0.10918553
93	0x3cb2fe34	0.02184973
94	0x3d98a73d	0.07453773
95	0x3e0d542a	0.13801637
96	0xbd328eb5	-0.043593127
97	0x3ded7075	0.11593715
98	0x3e14957f	0.14510153
99	0xbdfe5007	-0.12417608
100	0x3dc53a27	0.09630232
101	0x3d8b1822	0.06791712
102	0xbd924fac	-0.071441025
103	0xbe19d245	-0.15021618
104	0xbe14043d	-0.14454742
105	0xbd80ecdc	-0.06295177
106	0x3d1e7c95	0.03869303
107	0xbdd92cb1	-0.10604227
108	0x3d2f3bff	0.042781826
109	0x3deefce3	0.11669328
110	0x3d686695	0.056738455
111	0xbdb0ed97	-0.08639067
112	0x3de18452	0.11011566
113	0xbe008053	-0.12548952
114	0xbd31408d	-0.04327445
115	0xbe15d4f2	-0.14632013
116	0xbdce170d	-0.1006299
117	0xbe05d786	-0.13070497
118	0x3d253bb0	0.040340126
119	0xbdbaa7bf	-0.09114026
120	0x3db04643	0.08607151
121	0xbd52dc02	-0.051479347
122	0xbd4c3bfc	-0.049861893
123	0x3e01aebc	0.12664312
124	0xbd03c501	-0.0321703
125	0xbd363b96	-0.04449042
126	0x3c460372	0.012085782
127	0x3d83a77d	0.0642843
128	0x3df5bda6	0.11999063
129	0x3da417ce	0.08012353
130	0xbe139577	-0.14412485
131	0x3e084d0e	0.13310644
132	0x3dd8a905	0.10579113
133	0x3e0b4fd2	0.13604668
134	0x3df16644	0.11787084
135	0x3de3401e	0.11096214
136	0xbd4a7579	-0.049428437
137	0xbdc66ff1	-0.0968932
138	0x3de5b37e	0.11215876
139	0xbde8d42a	-0.11368592
140	0x3e02afc2	0.12762359
141	0xbd6d456f	-0.057927545
142	0xbd3fe670	-0.04685062
143	0x3e06fc01	0.1318207
144	0xbe0b61d7	-0.13611542
145	0x3e10580b	0.14096086
146	0xbdb08f99	-0.08621139
147	0x3cd68e29	0.026190834
148	0xbd3a8403	-0.045536052
149	0x3dec9c8c	0.115532964
150	0x3cf48e6f	0.029853074
151	0x3d54c1dc	0.05194269
152	0xbd3418de	-0.043969028
153	0xbd67ec0d	-0.0566216
154	0xbdc93886	-0.09825234
155	0x3d8b65d1	0.06806529
156	0x3ddcbb6e	0.10777937
157	0xbd5e1ffe	-0.05422973
158	0x3d93c7a8	0.07215816
159	0xbd05860f	-0.03259855
160	0xbd931fb7	-0.071837835
161	0xbd10b8a6	-0.035332344
162	0xbd57a015	-0.0526429
163	0xbc3a1ee7	-0.011359907
164	0xbda4391b	-0.080187045
165	0xbe032282	-0.12806132
166	0xbcce6334	-0.025193788
167	0x3db5da8e	0.088795766
168	0x3e103db3	0.14086036
169	0x3d57c00f	0.052673396
170	0xbd4f2197	-0.050569143
171	0x3d94f304	0.07272914
172	0xbc1a5726	-0.009420192
173	0xbde23d8e	-0.11046897
174	0xbd70a0a3	-0.058746945
175	0xbdea7575	-0.114481844
176	0x3ca17cc9	0.019712823
177	0x3dbc9420	0.0920794
178	0xbdf0ab12	-0.11751379
179	0xbd26da68	-0.040735632
180	0x3be502bd	0.006988852
181	0xbd635bde	-0.055507533
182	0x3db82231	0.089908965
183	0x3dd3346c	0.10312733
184	0xbc9471e8	-0.018120721
185	0xbcfbc93a	-0.0307356
186	0x3dbd54ac	0.092446655
187	0x3d2a36c1	0.041556124
188	0x3c697f64	0.014251564
189	0x3dec2152	0.11529793
190	0xbe0f6f02	-0.1400719
191	0xbdbbd892	-0.09172167
192	0xbe0ace53	-0.13555269
193	0x3da51dcc	0.08062324
194	0x3d7e867e	0.06213998
195	0xbc9971ba	-0.018730987
196	0x3dbf60b5	0.09344617
197	0xbdd1139a	-0.10208817
198	0x3e0bd964	0.13657147
199	0x3e033e83	0.12816815
200	0x3e1c1188	0.15241063
201	0xbcf69744	-0.030101426
202	0x3bcb3708	0.0062016286
203	0xbd454c10	-0.048168242
204	0xbdb53ffe	-0.08850096
205	0xbde11164	-0.10989645
206	0x3d0492b3	0.032366466
207	0x3d38765f	0.045034762
208	0xbbd3d127	-0.006464142
209	0x3ddffa0e	0.10936366
210	0xbe0a03d9	-0.1347803
211	0x3ca7de36	0.0204917
212	0xbddbedb9	-0.107387014
213	0xbdc90ad1	-0.09816516
214	0x3a70301f	0.0009162444
215	0x3e10197e	0.14072224
216	0x3d92f755	0.07176081
217	0xbdbd0da9	-0.09231121
218	0xbac4fe0f	-0.0015029329
219	0x3c9bb7b7	0.0190085
220	0x3d0fae7a	0.035078503
221	0x3e0d9123	0.13824897
222	0xbce91c15	-0.028455773
223	0x3d981e22	0.074276224
224	0x3e07151c	0.13191646
225	0xbda78b0d	-0.08180819
226	0xbe023136	-0.12714085
227	0x3dd0e7ab	0.10200437
228	0xbe11f563	-0.14253764
229	0x3cebd53b	0.0287882
230	0x3dcb33b1	0.09921969
231	0x3de64649	0.112438746
232	0xbda37e72	-0.07983102
233	0x3da77a98	0.0817768
234	0x3c984d9e	0.018591698
235	0xbdf04ec4	-0.11733773
236	0xbe18c62f	-0.14919351
237	0x3dfd790b	0.12376603
238	0x3cabbba0	0.02096349
239	0x3d089ac9	0.03335074
240	0x3d9783ee	0.073982105
241	0x3d928149	0.071535654
242	0xbd8e254b	-0.06940707
243	0x3e0e8875	0.13919242
244	0xbda56efa	-0.08077808
245	0x3e10d48b	0.14143579
246	0xbdd3cdf8	-0.1034202
247	0x3e09d270	0.13459182
248	0xbd2b8f55	-0.04188474
249	0x3d8b0e53	0.067898415
250	0x3d82ce97	0.0638706
251	0xbce9e482	-0.028551344
252	0x3d906823	0.070511125
253	0xbdce5f7b	-0.10076805
254	0x3e1a7677	0.15084253
255	0xbe0d93ba	-0.13825884

log_std_linear.bias f4 [2]
0	0x39736a1a	0.00023213812
1	0x3a4b12e7	0.0007746652
