output/Quadrotor-run6/critic.pkl (torch, 562625 bytes, 10 tensors)

linear1.weight f4 [256, 14]
000000 a3 94 f1 3d 7e b4 b0 3d fd 9c 52 bc 99 0a 50 bd
       0.11795928 0.08628176 -0.012854812 -0.050791357
000010 26 81 e5 3d 5a d1 c5 bd 79 84 9f 3d 3a 46 9f 3d
       0.11206274 -0.09659071 0.07788939 0.077770665
000020 28 95 3b bd 10 62 10 be e0 f2 b7 bd 22 e2 4b bc
       -0.045796543 -0.14099908 -0.089818716 -0.012444051
000030 55 24 a2 3d bc ff d4 3d f2 aa 64 bd fc 09 88 3c
       0.07917086 0.1040034 -0.05582709 0.016606323
000040 2b 35 38 3d 03 37 86 ba ab d0 6b bd f2 cc 11 bd
       0.04497258 -0.0010239783 -0.05757205 -0.03559584
000050 5d 3d 28 3d be 99 0e 3e 83 c0 b7 bc 50 54 f9 bd
       0.041074146 0.13925835 -0.022430664 -0.121742845
000060 c3 73 12 bd 24 e4 b4 3d 25 f1 0d be f9 bb fe 3b
       -0.03575493 0.08832577 -0.1386152 0.007773873
000070 df 15 96 3d f0 70 13 3e 0d 17 96 bd 5f 89 a0 bd
       0.0732839 0.14398551 -0.07328615 -0.078387015
000080 e5 5e 4a 3d 43 ae be bd cb 2c 88 3d 20 eb 7f bb
       0.049406905 -0.093105815 0.066491686 -0.0039050058
000090 f3 5d 96 bb 84 ee 6e 3d 76 d4 ef bc 50 ac ba bd
       -0.0045888363 0.058332935 -0.029276114 -0.09114897
0000a0 52 26 e2 ba 18 0a 95 3d b2 e4 84 3d 4b 9b 86 bc
       -0.0017253852 0.07277316 0.06488933 -0.016431471
0000b0 30 92 9d 3c 14 47 e4 3d 3b 3c 87 bd 95 b5 9b 3b
       0.019234747 0.111463696 -0.06603285 0.004751871
0000c0 f8 fd 8e bd cf 19 16 3e 95 80 d4 bd c9 b7 da 3d
       -0.069820344 0.14658283 -0.103760876 0.106795855
0000d0 1d 8b c0 bd 1f 80 19 be a8 58 6c 3a 22 29 a2 3b
       -0.09401534 -0.1499028 0.00090158964 0.004948751
0000e0 dc a9 05 be 92 49 58 bd 64 b3 84 3c 91 f5 6a bd
       -0.13053077 -0.052804537 0.016198821 -0.057363097
0000f0 f8 8d 97 3d 72 9e c0 3d 79 fb e9 3d 71 69 31 3d
       0.07400125 0.09405221 0.11424918 0.043313447
000100 6c 1b 10 be e9 cc 87 bd 62 36 06 be a1 7a 79 bd
       -0.1407296 -0.066308804 -0.13106683 -0.060907964
000110 6e 8b dd bd 55 2b e3 3c 70 11 c3 3c 4b 23 ae 3d
       -0.1081761 0.027730623 0.023812026 0.08502825
000120 72 8b e3 3d e9 07 15 be dc 29 85 bd 4a c8 c3 3d
       0.111105815 -0.14553799 -0.06502125 0.095596865
000130 4c 3e 17 be 85 f2 e3 3b 77 4e fb 3d 30 90 dd bd
       -0.14769858 0.006956401 0.12270825 -0.10818517
000140 07 06 02 3e 9e 13 a4 bc 4d 3d 01 be d5 f0 a8 3c
       0.12697612 -0.020028885 -0.1262104 0.02062265
000150 f5 07 84 bd f4 ab 0d 3d b1 20 0b 3e 08 8b 02 be
       -0.0644683 0.034587815 0.1358669 -0.12748349
000160 83 0b e6 bd 12 8f 9a bd 7b bb ca 3d b3 ce 05 3d
       -0.112326644 -0.0754682 0.0989904 0.032667827
000170 13 f2 09 be 0b 49 0c be 02 46 bb 3d 0e 98 9b bd
       -0.1347125 -0.13699739 0.09144212 -0.075973615
000180 24 d7 87 3d 2e db a2 bd c5 cd 3e 3d 09 21 83 bd
       0.06632832 -0.079519615 0.046582956 -0.06402785
000190 f2 7e 13 3e d5 8f 83 3d a6 2f a3 bd 23 ae c7 39
       0.14403895 0.06423918 -0.079680726 0.0003808598
0001a0 7b 4f ab bc 74 2f 82 ba c0 cb 97 bd e5 0e 0c bd
       -0.020911923 -0.0009932355 -0.07411909 -0.034193892
0001b0 2b df 09 be 8f 64 da bd da 6e 4d 3d e4 1f f4 bc
       -0.13464038 -0.10663711 0.050154544 -0.029800363
0001c0 2b ca 4d 3d 96 32 a9 bd e9 f7 01 be 4c 16 96 bd
       0.05024163 -0.082616016 -0.12692226 -0.073284715
0001d0 13 dc 4f bd 9b 88 11 3e 51 e8 93 bc e4 de 1f 3d
       -0.05074699 0.14212267 -0.018055113 0.039030924
0001e0 25 4f 03 be 87 5c 5d bd f2 32 6a bd e3 2f ef 3d
       -0.1282316 -0.05404332 -0.05717749 0.116790555
0001f0 57 59 bb bd a9 12 1a 3e 5a 23 50 bd 5e 66 56 3d
       -0.091478996 0.15046181 -0.050814964 0.05234372
000200 ef f9 c0 3c 8d 29 b6 3d 2b 62 61 3c cc 3d a3 bd
       0.023556678 0.08894644 0.013756315 -0.07970771
000210 c1 18 ea 3d b9 7b 23 3d ab 51 ce bc c1 ed 38 bd
       0.11430503 0.039912913 -0.025185427 -0.045148615
000220 a3 78 e6 3d b6 bb 46 bc 2b 90 e7 3b 9f 01 3a 3d
       0.112534784 -0.012129715 0.0070667467 0.045411702
000230 51 d2 c1 bd a5 d7 69 bb c4 61 97 bd a0 b2 a6 bd
       -0.09463943 -0.0035681513 -0.07391694 -0.08139539
000240 ee 5f 55 3c e6 19 36 bd 34 0a 14 3e 93 63 9c bd
       0.01302336 -0.044458292 0.14457017 -0.0763618
000250 da cc 04 3e d6 73 c4 3d 57 74 de 3d 37 ed d7 bd
       0.1296877 0.095924065 0.10862034 -0.10543292
000260 1d c9 c6 bd a8 99 21 3d 38 e4 0e 3e 92 85 c5 3d
       -0.09706328 0.03945318 0.13954246 0.09644617
000270 ec d7 56 3a 0e ef 07 3e 58 b3 dc bc ee 87 2b bc
       0.0008195627 0.13274786 -0.026940987 -0.01046942
000280 81 46 f1 bc 0d cb 50 3d 44 30 31 bd 70 a6 62 bd
       -0.029452564 0.050974894 -0.04325892 -0.05533451
000290 c7 dd 50 bd a8 f8 5c bd ed 0f e1 bd 90 0a f9 bd
       -0.050992753 -0.053948075 -0.10989366 -0.12160218
0002a0 85 ed 8d bd cd e4 10 be 14 ad 7c bd 65 3f 9b bd
       -0.06930069 -0.1414978 -0.061688498 -0.07580451
0002b0 44 74 5d bd 8d 58 e2 3d 9f b4 07 be 66 cc 15 be
       -0.054065958 0.11052046 -0.13252495 -0.14628753
0002c0 2e a1 79 bd 15 fd eb bd 83 89 82 3d f8 a2 bd bd
       -0.06094473 -0.11522881 0.063738845 -0.092595994
0002d0 d3 f9 65 3c 67 87 0a be 29 57 9b bd 8f 2b dd 3d
       0.0140366135 -0.13528214 -0.07584984 0.10799324
0002e0 ad cd aa 3c 99 1a 3d 3d c8 6c c1 bd e1 81 0e be
       0.020850027 0.046167944 -0.094445765 -0.13916732
0002f0 bf d9 91 3d 38 e1 46 bd 34 e4 40 bd 26 d8 8a bd
       0.0712161 -0.04855463 -0.04709263 -0.06779508
000300 ed 20 e3 3c cc 9d bc bd f5 0b be bd fb 09 09 3e
       0.027725661 -0.09209785 -0.092796244 0.13382713
000310 06 37 c0 3a 3c 38 13 3e ab 97 c2 bd 7b 23 e6 3d
       0.0014664836 0.1437692 -0.095015846 0.11237236
000320 45 b5 a2 3d 77 0a 86 bb 98 d6 3a 3d 51 52 03 bd
       0.07944731 -0.004090603 0.04561481 -0.032060925
000330 8d 19 24 bd 15 97 b4 3d 1f 10 98 3d 53 86 23 3d
       -0.04006343 0.08817879 0.0742495 0.039923023
000340 89 d7 c4 bb 14 bf de 3d 7d 77 fd bb 9c 08 81 bd
       -0.006007139 0.10876289 -0.0077351914 -0.0630047
000350 6c 4d d9 3d 7d 49 b1 3d a8 29 e6 bd 7d 08 88 3d
       0.1061047 0.08656595 -0.11238414 0.06642244
000360 3b 62 69 3d 20 ec 7b bd 16 ea 69 3d 72 9c e8 3d
       0.056978446 -0.061504483 0.057108007 0.113579646
000370 90 a6 54 bd df 7c 15 be 23 79 d9 3d 69 ab 0b 3e
       -0.05191666 -0.14598416 0.10618808 0.13639607
000380 79 2c 96 3d 14 38 f9 3d 09 67 93 bd c9 e0 c2 bd
       0.07332701 0.12168899 -0.07197387 -0.095155306
000390 ec 52 e8 3d e7 04 8c bd fa bb 06 3c 01 f2 d9 3d
       0.11343941 -0.068368725 0.008223528 0.10641862
0003a0 ee 07 d8 bc 97 7e 76 3d 05 49 b8 bd 5a fb 58 bd
       -0.026370969 0.06017932 -0.08998302 -0.052974083
0003b0 db 40 b5 3d 67 eb 05 be 14 be a9 3d 81 d0 d7 3c
       0.08850261 -0.1307808 0.08288208 0.02634454
0003c0 e7 71 ba 3b 17 42 d2 3b b6 33 ff 3d cd 01 90 3d
       0.0056898477 0.00641657 0.12461035 0.070315935
0003d0 13 1f 83 3d af e6 82 3d b0 00 c5 bd 2e 5a 9c bd
       0.06402411 0.06391656 -0.09619272 -0.07634388
0003e0 1f 42 c2 bc d8 06 e4 bc 3c a4 37 3d 2d 4f fe 3d
       -0.02371317 -0.027835295 0.04483436 0.12417445
0003f0 a4 83 c4 bd 42 fb 0d bd 8b 24 d1 3d 20 fa 5e bd
       -0.09595421 -0.034663446 0.10212048 -0.054437757

linear1.bias f4 [256]
000000 95 ff 42 bb cf 9b 0c 3b 9a 76 21 bb a0 c5 4f 3b
       -0.002975439 0.0021455174 -0.0024637342 0.0031703487
000010 17 04 19 3b af 5d 5f 3a b3 40 1b 3b 6d f6 27 3b
       0.0023348385 0.0008520735 0.0023689687 0.002562906
000020 28 e9 3c 3b 9d 52 02 bb 44 aa 19 bb 4b 2d 2a 3b
       0.0028825495 -0.0019885667 -0.0023447433 0.0025966938
000030 63 7f 65 ba bd 4b 88 38 e8 96 4c bb 1f f9 0c bb
       -0.0008754639 6.499093e-05 -0.0031217877 -0.0021510792
000040 9b 4f 3c 3b cd 7b 50 3b 6e df 23 bb ff 61 1d 3b
       0.0028733972 0.0031812072 -0.0025005 0.002401471
000050 ca 3e 13 3b 0f d3 17 bb c1 0b 38 bb 30 63 1a 3b
       0.0022467845 -0.0023166572 -0.0028083178 0.0023557656
000060 09 81 28 ba cf e9 13 3a d2 1e 37 bb 02 eb 4f 3b
       -0.0006427919 0.0005642445 -0.0027941954 0.003172577
000070 31 99 f1 3a 87 12 46 3b 5b 28 2a bb 4f 37 90 39
       0.0018432495 0.0030223446 -0.0025963995 0.00027507028
000080 bf 97 27 3b 7f 74 01 ba 2c c4 1d 3b 86 bd 45 3b
       0.0025572625 -0.0004938319 0.0024073226 0.003017278
000090 f7 b8 43 b9 c7 44 41 3b 75 90 40 ba 88 ac 33 3b
       -0.00018665554 0.0029490457 -0.00073457445 0.002741607
0000a0 3e 7e 3e 3b 1a 1b 2c bb 78 90 c2 3a e8 ba 24 b8
       0.0029066945 -0.002626127 0.001484408 -3.9274717e-05
0000b0 02 65 44 bb 8a 7c bd 3a 4b 8f 3a 3b e1 af 47 bb
       -0.0029967432 0.0014456671 0.0028466757 -0.0030469822
0000c0 d7 90 ad 3a a9 ff 57 3a ea 93 22 3b d7 cf 67 ba
       0.0013242018 0.00082396955 0.0024807402 -0.0008842921
0000d0 e7 3d 1c 3b 71 71 fd 3a 83 c8 45 3b 91 2b 4a 3b
       0.0023840608 0.0019336176 0.0030179329 0.0030848722
0000e0 e5 27 07 3b cd 66 3c 3b ca b8 40 bb c0 cf 2b 3b
       0.0020623144 0.0028747797 -0.0029407018 0.0026216358
0000f0 c1 f0 04 bb 42 e0 d8 ba 0e d4 33 bb c1 b9 04 3b
       -0.0020285102 -0.0016546326 -0.0027439627 0.002025232
000100 f1 02 40 bb 5f 04 3e bb 08 85 0e 3b 0e bb 4f 3b
       -0.0029298628 -0.0028994305 0.0021746773 0.0031697187
000110 1b b7 18 bb 8b 85 25 bb b0 8e 3c bb 2f f4 fd 3a
       -0.0023302499 -0.00252566 -0.0028771572 0.001937514
000120 c4 de 15 3a 99 1a 66 3a a7 bf 18 bb fc 00 61 b8
       0.00057170936 0.0008777767 -0.0023307593 -5.3645097e-05
000130 49 10 2d b8 e6 c7 1e bb b5 41 45 3b 18 a1 f1 3a
       -4.126158e-05 -0.0024228035 0.003009898 0.001843485
000140 a7 dd ba 3a b1 4a 2e 3b 72 6a 41 3b c0 eb 35 3b
       0.0014256731 0.0026594813 0.002951291 0.0027758926
000150 96 38 10 bb 70 b7 36 3b ed 94 ef ba 81 41 e6 b9
       -0.0022006384 0.0027880333 -0.0018278636 -0.00043917823
000160 12 4e 40 3b 6c 5d 23 3b c9 60 bf ba ac b7 4c 3b
       0.0029343409 0.002492751 -0.0014600988 0.0031237407
000170 ac 88 44 3b 2e 82 19 bb 72 2b ba 3a bb 66 0b bb
       0.002998869 -0.002342354 0.0014203622 -0.002127095
000180 5c 40 3f 3b c3 c9 b9 3a a8 ac 3d bb b1 a4 71 ba
       0.0029182648 0.001417451 -0.0028942022 -0.00092179613
000190 22 8f 40 bb 5c 13 3b 3a ad dc 26 bb 22 df 31 3b
       -0.0029382189 0.00071363687 -0.0025461123 0.0027141054
0001a0 ba df 48 3b 46 dc 04 3b 7d 12 0d ba db a8 34 bb
       0.003065093 0.0020272895 -0.0005381478 -0.0027566466
0001b0 19 bc 2c bb 4a 65 3d ba d1 b8 c9 3a 8d a1 28 3b
       -0.0026357232 -0.0007224871 0.0015390163 0.0025731057
0001c0 f1 59 23 bb a1 1c dd 3a de b4 26 3b 96 6e 18 b8
       -0.0024925435 0.0016869494 0.0025437395 -3.6342615e-05
0001d0 c0 92 85 38 d6 de 06 ba 96 57 23 bb 2f a4 b9 39
       6.3692685e-05 -0.00051448995 -0.0024924031 0.00035408276
0001e0 b0 ca ac ba 1d a1 f8 39 bc 07 08 39 c2 28 48 3b
       -0.0013182964 0.00047422285 0.00012972852 0.0030541872
0001f0 49 c7 4a 3b a6 85 41 bb 2c 08 af ba be 03 f3 3a
       0.0030941537 -0.0029529124 -0.0013353876 0.0018540544
000200 c3 ea 32 bb 05 e3 14 bb 69 0a 55 3b 2d 24 13 3a
       -0.0027300573 -0.0022718322 0.0032507426 0.00056129956
000210 e6 2b 3c 3b c4 1b 10 bb 74 29 33 bb 03 11 87 ba
       0.002871269 -0.0021989206 -0.002733794 -0.0010304753
000220 30 56 9d 3a 00 00 00 00 0e 69 21 3b 67 23 f8 3a
       0.0012003835 0.0 0.0024629268 0.0018931449
000230 ad ab 23 bb e1 0c 02 bb 77 65 31 bb 03 36 2f 3b
       -0.0024974153 -0.0019844102 -0.0027068534 0.0026735074
000240 79 06 9b ba 00 00 00 00 e2 af 45 3a 44 35 02 3b
       -0.001182749 0.0 0.0007541162 0.0019868175
000250 4e d9 51 39 27 f0 01 bb 49 4f 10 bb ff c2 5d ba
       0.00020012746 -0.001982698 -0.0022019914 -0.00084595376
000260 47 83 d5 ba 88 5c a1 b9 b1 65 33 bb ae be 32 bb
       -0.0016289734 -0.00030777254 -0.0027373845 -0.0027274298
000270 67 ef 2c bb 72 2b 46 3b 47 34 4e 3b 84 92 53 37
       -0.0026387812 0.0030238298 0.0031464265 1.2610693e-05
000280 ae 13 6a ba ea 14 0b 3b 87 d1 37 3b d4 77 14 3b
       -0.0008929324 0.0021222183 0.0028048472 0.002265443
000290 03 55 49 3b 49 ba 04 3b bf 4e ed ba e3 bd be 3a
       0.0030720837 0.0020252636 -0.0018105133 0.001455244
0002a0 10 03 13 3a 18 9d d2 3a 17 06 1c bb b4 11 15 bb
       0.00056080613 0.0016068546 -0.002380734 -0.0022746148
0002b0 c4 0b d5 3a 12 bb 48 bb ff f8 9a 3a a2 cd cf 3a
       0.0016254117 -0.003062908 0.0011823474 0.001585413
0002c0 6c fa 11 bb b8 83 37 3b c3 0b 29 3b b8 15 b4 ba
       -0.0022274507 0.0028002094 0.0025794364 -0.0013739383
0002d0 d5 75 3b bb e7 ce 8f ba 2c 74 19 bb 50 23 d6 ba
       -0.002860417 -0.0010971696 -0.002341519 -0.0016337428
0002e0 0e c5 3e 3b f6 6e 01 3a 85 8a 1e bb 7d 4d 01 bb
       0.0029109153 0.0004937494 -0.002419145 -0.0019730025
0002f0 e1 96 ac ba 4b c0 40 3b 80 fb d8 ba c8 47 6c b9
       -0.0013167524 0.002941149 -0.0016554445 -0.00022533454
000300 0d a0 24 3a 5b 22 34 bb 60 af 11 bb 82 b5 4d bb
       0.0006279953 -0.0027486298 -0.0022229776 -0.0031388705
000310 00 00 00 00 6f a5 49 3b 78 73 38 bb 03 4f 2e bb
       0.0 0.0030768772 -0.0028144997 -0.0026597388
000320 38 07 df 3a 82 0f 19 3b c6 df ea ba de 4e 44 b9
       0.0017015701 0.002335519 -0.0017919473 -0.00018721397
000330 b8 58 34 3b 1a 61 1d bb 04 55 24 3b b9 b0 a5 3a
       0.00275187 -0.0024014176 0.0025075087 0.0012641168
000340 d2 e5 0d 39 11 da db ba 1b be 15 bb c6 f5 49 3b
       0.00013532423 -0.0016773363 -0.0022848907 0.0030816658
000350 a5 18 44 3b 33 17 32 3a 18 e6 bc 3a cf 53 96 ba
       0.0029921916 0.0006793618 0.0014411835 -0.0011469069
000360 52 a9 3f bb a6 ab 20 bb 9b 8f 82 ba 51 e8 88 3a
       -0.002924521 -0.0024516373 -0.0009961011 0.0010445212
000370 58 83 5f 3a d8 37 2b 3a c8 d4 0e bb 23 82 12 3b
       0.00085263466 0.00065314537 -0.0021794308 0.00223554
000380 6c 45 3b bb 74 d4 39 bb 9f 0a 38 bb dd 1e 24 ba
       -0.0028575314 -0.0028355392 -0.0028082503 -0.00062607025
000390 df a3 1c bb 31 ec 90 39 51 98 06 bb aa 22 4b 3b
       -0.0023901386 0.00027641797 -0.0020537565 0.0030996003
0003a0 47 a3 86 b9 1d 5c 95 ba d8 06 af ba 7c 2e e4 ba
       -0.00025680123 -0.001139525 -0.001335348 -0.0017408873
0003b0 90 f6 16 bb 88 e0 aa ba 60 58 e4 ba a1 f2 c9 ba
       -0.0023035146 -0.0013036886 -0.0017421357 -0.0015407392
0003c0 c3 d8 13 bb fd 0a 41 3b 20 ae 29 bb 62 60 3a 3b
       -0.002255962 0.0029456012 -0.002589114 0.0028438796
0003d0 86 58 3a 3b c7 e5 28 3b 6e 8f 33 3b 1d 3d 3f bb
       0.0028434112 0.0025771724 0.0027398723 -0.0029180713
0003e0 d8 cc 29 ba ce 48 95 3a 82 25 cb 3a 10 b1 f2 3a
       -0.00064773625 0.0011389495 0.0015498849 0.0018515904
0003f0 9d 73 08 3b cc 7b dc 3a cd aa 4e 3a 57 ab 44 3b
       0.0020820864 0.0016821562 0.00078837277 0.0030009353

linear2.weight f4 [256, 256]
000000 d0 66 b5 bd fb 23 78 bd 9a 48 93 3c 7e 64 f4 3c
       -0.088575006 -0.06058119 0.017978955 0.029833075
000010 0b c6 ad 3d 49 7e 1d bd d6 47 3f bd 1a d4 16 bd
       0.08485039 -0.038450513 -0.046699367 -0.03682337
000020 9d c3 20 bd 6e ba 93 3d 14 15 93 3d b8 bd 01 b9
       -0.03924905 0.07213293 0.07181755 -0.00012373074
000030 96 83 53 bb 8a f5 22 bd b2 0e d5 3c 69 4b ba 3c
       -0.0032274476 -0.039784946 0.026007984 0.022741036
000040 00 c8 3d bb 8f b9 99 bc bf bb 83 3d cc 83 43 bd
       -0.002895832 -0.018765239 0.06432294 -0.047733113
000050 98 b4 ce bd cd 5d e5 3b fa 2c 5b 3c ee 7e ca 3d
       -0.10093039 0.0069997073 0.0133774225 0.09887491
000060 e2 eb b6 3c 5c 18 99 3d ef b9 95 3d e4 8e 72 3c
       0.022329275 0.07475349 0.07310855 0.014804576
000070 a0 cb 34 3d 5f 9c 87 bd 7d cb a5 3d fa 3a 65 bd
       0.044139504 -0.06621622 0.08095453 -0.055964448
000080 e7 eb 95 bd 9f 1b d1 3c 0f 1f db bd 9a 80 ac 3c
       -0.073203854 0.025525866 -0.10699283 0.021057416
000090 36 76 a8 bd de 0c c9 3d d9 b3 b7 bd fa 45 a5 3d
       -0.08225672 0.09816907 -0.0896985 0.080699876
0000a0 56 66 ac bd 30 6b c4 3d b9 16 98 bd 33 f6 bf bd
       -0.084179565 0.09590757 -0.07426209 -0.09373131
0000b0 9c 67 6e 3c bf 1e d7 bc 90 fd 98 bd 7c 97 34 bc
       0.01455107 -0.026259778 -0.07470238 -0.011022445
0000c0 60 0b 88 bd aa d6 9e bd fa 44 e6 bc 15 b7 b2 bb
       -0.066427946 -0.07755788 -0.028109062 -0.005453954
0000d0 90 39 8e bd ad 05 18 bc c0 f4 cb 3d e1 37 85 3d
       -0.06944573 -0.009278697 0.09958792 0.06504799
0000e0 ec 94 a5 bc ce f2 a1 bd 8d a8 b1 3c 31 92 84 3d
       -0.020212613 -0.079076394 0.021686817 0.06473196
0000f0 12 2b 81 bd 4b 46 b3 bd 67 fb 22 bb ef 42 44 bd
       -0.06307043 -0.08753642 -0.0024869086 -0.047915395
000100 ef d9 9e 3d 93 73 25 39 b7 dc 7b bd a8 d2 9e 3d
       0.07756411 0.00015778681 -0.061489787 0.07755023
000110 1a 53 bb bd 5a e4 d4 bd ed d9 ce 3d b3 54 b9 bd
       -0.0914671 -0.10395117 0.1010016 -0.09049358
000120 61 4a c1 bd 58 19 0d bc 95 90 1d 3d 39 8b 00 3d
       -0.09438015 -0.008611999 0.038467962 0.031382773
000130 1e 3f 9e bd a7 64 85 bd 89 59 d7 3c c7 42 0c bd
       -0.077268824 -0.065133385 0.02628781 -0.03424337
000140 e1 8f d0 bd 3f e2 81 3d ac 71 37 bd 3f e1 38 bd
       -0.10183693 0.06341981 -0.04478614 -0.045136686
000150 fc 26 5c bd ec 38 bf 3d a4 20 49 bd 4a 90 b8 bd
       -0.053748116 0.09337029 -0.049103394 -0.09011896
000160 06 a3 bd 3d 2c 7c 50 bd e5 12 65 3d db de 4d bd
       0.0925961 -0.05089967 0.055926222 -0.05026136
000170 d0 8c 27 bd 2a 64 a9 bc 12 e2 eb 3c dd 09 dc bb
       -0.040905774 -0.020677645 0.028794322 -0.006715043
000180 28 a0 fa 3c 61 d5 2d 3b 1f 2c 64 3d d7 16 4b bd
       0.030593947 0.0026524889 0.05570614 -0.04958233
000190 56 36 e1 bc a1 21 a3 3d 3c 9d 79 3d d7 96 80 3c
       -0.02749173 0.079653986 0.060940966 0.015696926
0001a0 9d 75 6b bc 3d a9 c9 bd 1b ad 20 bd 7f 03 a2 bd
       -0.014371303 -0.09846733 -0.039227586 -0.07910823
0001b0 83 c2 65 3a 7c 24 1f 3d ce 99 b2 3d 83 54 a9 bd
       0.0008764641 0.038853154 0.08720742 -0.082680725
0001c0 ca 97 2e 3d 59 c8 8f 3c 6f b1 a3 3b 71 85 cb bc
       0.042625226 0.017551588 0.004995517 -0.024843903
0001d0 cb 10 ca 3d 91 34 0b bd 13 bf b5 bd 12 05 bc bd
       0.09866484 -0.033985678 -0.08874335 -0.091806546
0001e0 70 16 53 bb f6 60 14 3d 61 ec 15 3d 7b fc a7 3d
       -0.0032209419 0.03622528 0.03660238 0.08202454
0001f0 5c 25 a0 bd 48 ed 97 3c a3 94 a8 3d 9b a9 99 3d
       -0.07819626 0.018545762 0.08231475 0.07503053
000200 40 b2 ea bc 32 41 39 3d 3a 0a d1 bc 9a 48 9d 3d
       -0.02864945 0.04522819 -0.025517572 0.07679863
000210 62 fd c9 bd 6a 39 2e bc fc ac d6 bd e0 01 c2 ba
       -0.09862782 -0.010633806 -0.10482213 -0.0014801584
000220 6a d9 ea 39 06 3b 57 bd 82 86 84 3d 9c 6b 72 bd
       0.00044793944 -0.052546524 0.06470968 -0.059184656
000230 6f 6a a3 bd 63 a3 d8 bc 98 0c 7d 3d 7a 3d a4 bd
       -0.07979285 -0.026445096 0.06177959 -0.08019538
000240 47 88 e2 bc 55 9c 67 3d 45 ae c8 bc 07 94 a6 3d
       -0.027652873 0.056545574 -0.02449716 0.08133703
000250 92 df 59 3d bd 51 8e bd f5 f5 cb 3d 52 3c 01 3c
       0.05319173 -0.06949184 0.09959022 0.007887917
000260 21 94 79 bd ed de 07 3d ba 33 0f bd c1 04 5b 3d
       -0.060932282 0.033171583 -0.03496144 0.05347133
000270 81 62 0c bd d0 d0 b5 3d 4a 96 db bc 0e 68 b3 bb
       -0.03427363 0.088777184 -0.026805062 -0.005475051
000280 84 a6 22 bd 5f 1f 07 3d c6 8f be bd 4c 4b d3 3c
       -0.039709583 0.032988902 -0.09304766 0.02579274
000290 ef 2a 04 3c f8 02 2c bd 45 10 68 bd df 35 21 bd
       0.008066877 -0.04199502 -0.05665614 -0.039358016
0002a0 b3 97 a9 bd 61 40 99 3c 1b c4 c2 3d 70 05 83 bd
       -0.082808875 0.018707456 0.095100604 -0.063975215
0002b0 00 f0 e0 3b d1 e8 fc 3c 3e fb cb 3d 5e bd be bc
       0.0068645477 0.030872734 0.0996003 -0.023283657
0002c0 4a 38 50 3c 49 de d9 bd f9 4d 6a bd ad 4d 34 3d
       0.012708733 -0.10638101 -0.057203267 0.04401939
0002d0 b7 cd fb 3b b5 1c 98 3d b4 47 8a bd c5 88 c2 bd
       0.007684435 0.074273504 -0.067519575 -0.09498743
0002e0 1c 40 e1 bd 0f 0b 8f bd 46 68 50 3d 7f ca 4a 3d
       -0.10998556 -0.06984531 0.050880693 0.04950952
0002f0 db 08 d9 3c cb e5 ce 3d 21 e6 13 3d 46 ea 85 3d
       0.02649348 0.10102423 0.03610814 0.06538825
000300 04 ca b8 bc 0a d3 0b bd f8 e1 3e 3d 2b 48 90 3d
       -0.022557266 -0.03413681 0.04660222 0.07045015
000310 d7 a3 d4 3d 22 3d b9 3d 7b 41 28 bc 71 72 0d bd
       0.103828125 0.09044863 -0.010269518 -0.034532968
000320 d0 a4 c3 3d 40 35 25 bd 24 a3 b8 3d f5 c6 d0 bd
       0.0955292 -0.040333986 0.090154916 -0.10194198
000330 37 87 17 bc 7f 63 0f 3c 20 44 8c bd 9d 41 57 bb
       -0.009248546 0.008751749 -0.06848931 -0.0032845505
000340 bb 69 85 bc 41 7b b8 bc 50 81 96 3d e5 f0 83 bc
       -0.016285768 -0.02251971 0.07348883 -0.016106078
000350 d0 f7 bc 3c c6 bf a9 bd c0 04 52 bd 19 58 01 3d
       0.023067385 -0.08288531 -0.05127406 0.031578157
000360 99 f3 47 3c f1 6e 93 3b 75 2c 3e 3a c9 15 d4 3d
       0.012204074 0.004499309 0.00072545494 0.10355718
000370 d6 ad 6d 3d 59 7c 3d bc d9 aa 14 3d 21 df af bb
       0.05802711 -0.011565291 0.036295746 -0.005367175
000380 e1 b8 94 3d 24 77 41 bd 48 e2 a6 bd 63 b0 31 3d
       0.07261825 -0.047232762 -0.081486285 0.043381106
000390 2d 90 ac bd b7 3d a9 bd f3 a8 8f bd df 4d be bc
       -0.08425937 -0.08263724 -0.070146464 -0.023230491
0003a0 d5 e2 62 3c 5b 4e a0 3c 3e bd d5 3d ca 43 b4 3c
       0.013848026 0.019568613 0.10436486 0.02200498
0003b0 51 6d a5 3d 94 3c 37 3d f6 fd a8 3d 54 2f 02 3d
       0.08077491 0.044735506 0.08251564 0.031783417
0003c0 26 4b a7 3d 6a 78 ab 3c 7b 8c e9 bc 6e 2d 17 bd
       0.0816863 0.020931441 -0.02850937 -0.03690856
0003d0 f1 4b be 3d ea 63 ac 3d 6d 00 08 bd 2b a4 27 3c
       0.092918284 0.084174946 -0.03320353 0.010232012
0003e0 20 a4 42 bd 22 5e d1 3d d6 12 52 bc 07 30 3d bd
       -0.047519803 0.102230325 -0.012821874 -0.04618838
0003f0 ed 49 ec 3c 09 ad cb bd 07 ae c9 bb bb 5e a5 3d
       0.028843844 -0.09945113 -0.006154779 0.08074709

linear2.bias f4 [256]
000000 8c 6f 3c bb 37 05 06 bb 7e 11 47 3b b3 ea 47 3b
       -0.002875301 -0.0020449886 0.0030375416 0.0030504882
000010 50 cc f9 39 e4 2e 33 3b 1e da 2e bb 00 00 00 00
       0.00047645206 0.0027341181 -0.00266803 0.0
000020 9e 2b 22 ba b8 27 46 3b 00 00 00 00 9d 3c 2d bb
       -0.0006186309 0.0030236077 0.0 -0.0026433833
000030 2e c1 48 bb f2 2e 45 bb 02 f1 44 bb a0 8c 15 bb
       -0.0030632722 -0.0030087796 -0.0030050878 -0.0022819415
000040 77 0b 97 3a 68 39 4a 3b 51 e7 21 ba c2 40 1d bb
       0.0011523803 0.003085697 -0.00061761314 -0.0023994897
000050 af 38 af ba da 3b 3f 3b 00 00 00 00 87 10 34 3b
       -0.0013368333 0.0029179961 0.0 0.0027475671
000060 e9 42 09 3b d9 38 42 bb a8 90 44 bb 83 15 42 3b
       0.0020944423 -0.0029635935 -0.0029993448 0.0029614873
000070 6b d6 0c 3b 00 00 00 00 da fd e6 3a 48 8a 18 ba
       0.0021490108 0.0 0.0017623261 -0.00058189454
000080 00 00 00 00 b5 61 c2 ba 72 5c 06 3b a9 2f 45 bb
       0.0 -0.0014830144 0.002050188 -0.0030088222
000090 22 27 28 3b a6 b2 45 3b 00 00 00 00 78 8f 1f 3a
       0.002565809 0.0030166297 0.0 0.0006086747
0000a0 fd d2 10 bb ce 01 3b bb 4b 38 16 bb 8b c7 56 3a
       -0.0022098415 -0.0028535011 -0.0022921737 0.00081931864
0000b0 2e 0a 45 bb 85 8d 2c 3b ce 35 9a ba 8c 97 45 3b
       -0.0030065882 0.002632947 -0.0011765303 0.0030150143
0000c0 89 83 41 bb d1 00 45 bb 7a 6c 42 bb 2e f5 45 3b
       -0.0029527864 -0.00300603 -0.0029666708 0.0030205953
0000d0 61 4d 37 3b ca 70 07 3b 08 26 40 3b ee ec d7 ba
       0.0027969705 0.0020666593 0.0029319543 -0.0016473809
0000e0 f6 c4 be ba d7 28 3d 3a 1c cd ec 3a ab 90 22 ba
       -0.0014554549 0.00072158634 0.0018066498 -0.0006201367
0000f0 aa fa 37 3b 20 30 4f bb e5 bc c0 ba 22 71 34 3b
       0.0028072991 -0.0031614378 -0.0014704732 0.0027533253
000100 5b fd d2 ba 00 00 00 00 7d 1e 1c bb 58 8c 27 3b
       -0.0016097234 0.0 -0.0023821883 0.002556583
000110 14 2e 32 3b 9e 79 39 bb b2 4c dc ba f3 35 42 3b
       0.002718811 -0.002830125 -0.0016807525 0.0029634207
000120 3d 8a 0f bb 00 00 00 00 d5 e3 fc 3a 14 d7 3f 3b
       -0.0021902465 0.0 0.0019293973 0.0029272484
000130 c7 4a 42 bb 67 73 49 3b e8 48 28 3b 18 2f 74 3a
       -0.0029646622 0.0030738951 0.002567822 0.0009314879
000140 48 5d de 3a 9f 70 36 bb 6c 1b 3c bb 3a 11 3a bb
       0.0016965056 -0.0027838123 -0.0028702868 -0.0028391615
000150 3d 6c 18 ba ab d3 25 bb f6 9a 4b bb 8f de 45 3b
       -0.00058144686 -0.0025303166 -0.0031067706 0.003019247
000160 9c b5 47 3b 40 35 0d 3b 69 89 7d b9 8f 75 34 3b
       0.0030473238 0.0021546632 -0.0002417915 0.002753589
000170 94 bf 3a bb 89 84 b4 b9 86 f8 46 bb d2 c1 1d bb
       -0.0028495537 -0.00034431022 -0.0030360534 -0.0024071825
000180 d2 28 46 3b 1e 18 b5 3a aa b8 43 bb b7 55 2e 3b
       0.0030236733 0.0013816392 -0.0029864707 0.0026601383
000190 a6 59 08 bb af fc 40 3b 87 4e ab ba 20 ae 39 bb
       -0.0020805388 0.0029447486 -0.0013069668 -0.0028332546
0001a0 a0 24 2a bb 00 00 00 00 66 09 fb ba 73 f5 42 3b
       -0.0025961772 0.0 -0.0019152581 0.002974835
0001b0 08 66 0e bb 08 15 07 3a b4 7d 42 3b 2c 3d 31 3b
       -0.0021728296 0.0005152975 0.0029676976 0.0027044518
0001c0 49 d1 3b bb 93 36 45 bb f6 b3 45 3b 7e 02 42 3b
       -0.002865868 -0.0030092343 0.003016708 0.0029603536
0001d0 13 88 27 3b cb a6 45 3b e8 10 0e bb e8 af 12 3b
       0.0025563284 0.003015923 -0.0021677557 0.002238268
0001e0 f6 20 2a 3b 74 0f 99 ba d0 2f 86 3a 36 82 1e bb
       0.0025959588 -0.0011677579 0.0010237638 -0.0024186498
0001f0 00 00 00 00 d0 cd fd 3a 30 eb fc 3a c0 19 ce 3a
       0.0 0.0019363705 0.0019296166 0.0015724227
000200 14 6a 45 3b 95 75 be 3a 82 7c fe 3a 98 83 2f 3b
       0.0030123042 0.0014530892 0.0019415768 0.0026781317
000210 83 ec 45 3b b6 da 0e bb 43 de 45 bb 11 ae 16 3a
       0.0030200786 -0.0021797842 -0.0030192293 0.0005747984
000220 5f 4e ab ba ee c8 3b 3b c8 74 4e 3b ff af 43 bb
       -0.0013069621 0.00286537 0.0031502713 -0.002985954
000230 7e a1 42 3b c2 6d 2a bb a0 2a 81 3a 97 76 11 ba
       0.0029698308 -0.0026005362 0.0009854622 -0.00055489823
000240 a7 14 31 ba 7b 15 36 3b 48 65 3d bb 2f d2 46 3b
       -0.00067550916 0.00277838 -0.002889948 0.0030337682
000250 73 67 42 3b 9b 83 47 3b 99 ab e6 3a 00 00 00 00
       0.0029663711 0.0030443433 0.0017598748 0.0
000260 9d 74 e6 3a ef 7d 36 bb e4 71 2c bb 40 3e 33 bb
       0.0017582361 -0.0027846058 -0.0026313001 -0.0027350336
000270 a0 0f db 3a 86 d8 fd 3a 58 5a 2b 3b de 83 31 3b
       0.0016713031 0.0019366897 0.0026146378 0.0027086656
000280 00 00 00 00 e4 89 3e bb 1e 73 41 bb 00 00 00 00
       0.0 -0.0029073888 -0.0029518078 0.0
000290 21 7b 22 bb 94 b5 41 bb 6b f5 38 bb 41 a0 98 3a
       -0.0024792629 -0.0029557692 -0.0028222452 0.0011644439
0002a0 1f f4 fc 3a 8d 59 41 3b 26 f0 3e 3b 7a 34 09 3b
       0.0019298828 0.002950284 0.002913484 0.002093582
0002b0 d4 1d e8 ba ec f0 41 3b 9b 6b 3a 3a 00 00 00 00
       -0.0017709085 0.0029593064 0.00071113714 0.0
0002c0 a3 7d 46 3b c9 45 47 bb 02 68 fd ba 88 9c 3d 3b
       0.0030287288 -0.0030406585 -0.0019333365 0.0028932411
0002d0 e7 9c 47 3b 24 51 49 3b 09 01 03 bb 00 00 00 00
       0.0030458511 0.003071853 -0.001998963 0.0
0002e0 20 09 49 bb 00 00 00 00 cd ea 35 bb 0b 11 39 bb
       -0.0030675605 0.0 -0.002775836 -0.0028238918
0002f0 e3 1b 38 3b 69 57 1c bb 57 dc 01 3b 72 90 42 3b
       0.0028092794 -0.0023855811 0.001981517 0.0029688147
000300 34 d5 3a bb 6e fa 3e 3b e9 d8 f6 3a 00 00 00 00
       -0.0028508427 0.0029140967 0.0018832955 0.0
000310 70 72 44 3b 97 fb 1c 3b 27 c0 45 3b 71 41 34 bb
       0.0029975437 0.002395367 0.0030174346 -0.0027504826
000320 00 00 00 00 b9 c6 26 bb 00 00 00 00 b8 51 43 bb
       0.0 -0.0025448038 0.0 -0.0029803347
000330 1f a1 39 3b d5 73 93 39 06 63 3b bb 37 f9 45 3b
       0.0028324795 0.00028124326 -0.0028592958 0.0030208358
000340 c5 a2 45 3b ac c2 45 3b 68 5a f8 ba 00 00 00 00
       0.0030156833 0.0030175848 -0.0018947842 0.0
000350 00 00 00 00 00 00 00 00 63 9a b3 3a 78 9a 2c bb
       0.0 0.0 0.0013702627 -0.0026337188
000360 00 00 00 00 46 28 20 3a c6 ef 44 3b 71 7c 1b bb
       0.0 0.0006109517 0.0030050143 -0.0023725296
000370 38 14 42 bb f0 0a ea b9 99 e8 b9 3a 42 61 30 bb
       -0.0029614102 -0.00044640107 0.0014183699 -0.002691344
000380 a9 0b 49 bb 6d ba 32 bb c0 10 56 3b 5a fe 4b 3b
       -0.0030677116 -0.0027271763 0.0032663792 0.0031126947
000390 6d ce 17 bb 43 12 44 3b 87 ee 21 3b e3 92 30 bb
       -0.002316381 0.0029918111 0.0024708824 -0.002694302
0003a0 6a f3 49 3b 00 00 00 00 ac 08 db ba a8 4e 3b bb
       0.0030815252 0.0 -0.0016710958 -0.0028580818
0003b0 5a d8 2c bb ec 38 46 3b bf 9c c4 ba 00 00 00 00
       -0.0026374073 0.003024633 -0.0015000327 0.0
0003c0 9d f9 ce 3a ba 4c 26 3b a0 07 fd 3a 6d 82 41 bb
       0.0015790943 0.0025375322 0.0019304641 -0.0029527203
0003d0 ee a9 45 3b 6b 68 40 bb 0a b8 45 3b 68 c0 45 3b
       0.00301611 -0.0029359113 0.003016951 0.0030174498
0003e0 fa ef 39 bb 98 1a 49 3b ed 07 c2 ba 38 1c 47 3b
       -0.0028371797 0.0030686017 -0.0014803387 0.003038181
0003f0 25 a9 22 ba 52 b8 1f 3a 00 00 00 00 fe 63 1f 3b
       -0.0006205014 0.00060928345 0.0 0.0024321075

linear3.weight f4 [1, 256]
000000 bc 98 32 3b 45 59 aa 3c 04 87 6e bd 5d 7f 03 be
       0.0027251681 0.02079452 -0.05823423 -0.12841554
000010 8d a6 ab bd 47 e3 9c bd 69 55 00 3e 16 2a 17 3e
       -0.083813764 -0.07660537 0.12532581 0.14762148
000020 4f f2 e2 3d 73 98 27 bd 97 80 00 3e 21 17 10 3e
       0.11081373 -0.04091687 0.12549053 0.14071323
000030 e9 2b 7b 3d 89 5b c8 3d 8a b2 52 3d ad a4 cd 3d
       0.061321173 0.09783084 0.0514398 0.10041175
000040 04 eb a0 bc 85 7c 4d bd a1 ca 19 3e 6e a0 09 3e
       -0.019643314 -0.05016758 0.15018703 0.13440105
000050 96 3f ca 3d fe 7b 31 bd 3e 04 cc bd 53 68 ed bc
       0.09875409 -0.04333114 -0.09961747 -0.02898041
000060 e9 d7 05 be 0a 7e b3 3d d7 19 f0 3c a5 b4 65 bd
       -0.13070644 0.087642744 0.029309196 -0.05608048
000070 5d d6 b8 bc 86 8a fb 3b a8 49 62 bd 8d db e9 bd
       -0.022563154 0.0076764254 -0.055246025 -0.11418829
000080 55 5f c3 bc 8a 80 17 3b 62 db 80 bd ce 61 c0 3d
       -0.023849169 0.0023117387 -0.06291844 0.09393655
000090 a2 13 1a be 77 a6 e9 bd 47 75 ed 3d ab 5f 88 bd
       -0.15046552 -0.11408704 0.115946345 -0.06658872
0000a0 43 90 c0 3d fd 97 79 3d ef 6d d3 3d a5 77 29 bd
       0.09402516 0.060935963 0.103237025 -0.041373868
0000b0 1f e1 83 3d 04 09 07 be 9f c2 e3 3c 66 c1 1c be
       0.06439423 -0.13187033 0.027802764 -0.1530815
0000c0 15 18 cf 3d 34 0f b4 3d 47 ab 46 3d 2b 22 61 bd
       0.10112015 0.08791962 0.048503187 -0.054964226
0000d0 89 f0 dd bd cb 7d 12 3d 86 26 21 bc b4 eb ce 3c
       -0.10836894 0.035764497 -0.009835845 0.025258876
0000e0 39 17 94 3d 7f 1f f6 bd 96 e3 cd bd f9 f3 9e 3d
       0.07230992 -0.12017726 -0.10053174 0.07761378
0000f0 af 67 d0 bd 8d 43 82 3d 7c ac b8 3d 1e 3d 8b bd
       -0.10176026 0.063605405 0.09017274 -0.067987666
000100 3a c5 0d 3e 3b 9a 9d bd 65 31 91 3b aa 05 d7 bd
       0.13844767 -0.07695433 0.004430937 -0.10499127
000110 66 29 08 be 6c fc 91 3d 81 8b b6 3d 5d de 02 bd
       -0.13297042 0.07128224 0.08913327 -0.031950343
000120 e8 85 f5 3d fe b8 d2 3d 2e c7 73 bd 47 11 af bd
       0.11988431 0.10289191 -0.059516124 -0.08548217
000130 bb b6 db 3d ad f4 02 bd 7d 3e 06 be 9e 91 0b bb
       0.107282124 -0.031971622 -0.13109775 -0.0021296511
000140 12 dc 79 bd cb 55 43 3c f8 90 c4 3d 56 6b b4 3d
       -0.06100089 0.01192231 0.09597963 0.08809535
000150 c2 9d 04 be 25 fa 85 3d b6 22 ba 3d c8 86 86 bd
       -0.12950805 0.06541852 0.09088652 -0.06568676
000160 32 7b 9b bd 72 70 eb bd be 6e ff ba 3f 54 69 bd
       -0.07591857 -0.114960566 -0.001948796 -0.05696511
000170 1e 98 13 3e 42 ec b3 bd dc eb e3 3d d2 91 b2 3c
       0.14413497 -0.08785297 0.11128971 0.021798048
000180 e4 2f 21 bd 09 18 cc 3d c6 00 b2 3d 4d da b0 bb
       -0.039352313 0.09965522 0.08691554 -0.005397117
000190 f2 d2 d1 3d d0 53 10 be 38 14 56 bd 16 6f 89 3c
       0.10245313 -0.14094472 -0.052265376 0.016776603
0001a0 0e cb 9a 3d 33 46 6e bc 73 1c 07 3e 62 cd a3 bd
       0.07558261 -0.014543104 0.13194446 -0.07998158
0001b0 aa af 15 3d 81 4a 1b be 4c 63 15 be 77 3c 87 bd
       0.03654448 -0.1516514 -0.1458866 -0.0660333
0001c0 58 a8 0a 3c 0d ec e3 3d a5 09 df bd c1 0e cb bd
       0.008462988 0.111290075 -0.108905114 -0.099149235
0001d0 6f 82 a9 3b 8f 71 0d be 91 14 af 3d a5 e3 fb bd
       0.0051730196 -0.1381285 0.085488446 -0.12299279
0001e0 d2 82 61 bd e5 94 03 3e 48 0a 0f be 0c 4d 34 3b
       -0.0550564 0.12849768 -0.13968766 0.0027511744
0001f0 4c 51 d5 3d b7 96 b9 bd 6b 73 9a bd b6 cd 81 bd
       0.10415897 -0.0906195 -0.075415455 -0.063380644
000200 64 11 91 bd 0a 6a a3 bd f6 4a e3 bd 31 ae eb bd
       -0.07083395 -0.0797921 -0.11098282 -0.11507834
000210 9a 79 a2 bd 7a 3c 72 3c b6 8f d4 3d 57 dd df 3d
       -0.0793335 0.014784927 0.10378973 0.10930889
000220 69 9c 75 bc 5d 8a 1c be f4 fd 12 bc 75 62 b9 3d
       -0.014990904 -0.15287156 -0.00897168 0.09051982
000230 83 b9 18 be f3 09 c5 3d 29 e2 b8 bd 92 33 97 3d
       -0.14914517 0.09621038 -0.090275116 0.07382883
000240 ff f2 d4 3b ad 0b 2e bd c7 74 06 3e ca df 09 be
       0.006498694 -0.042491604 0.13130485 -0.13464275
000250 f9 36 d0 bc 4d 1a 88 bd e2 fd d3 bd ea 24 96 3d
       -0.025416838 -0.066456415 -0.10351159 0.073312595
000260 c3 f9 86 bd c7 f7 f0 3c 96 8e c9 3c 25 bd ce 3d
       -0.06590607 0.029415024 0.024604123 0.1009467
000270 3c 1a 7e bb de db 7f bd 0f 12 79 bc 50 2f 19 be
       -0.003877296 -0.06246554 -0.015202059 -0.14959455
000280 4d 59 05 be 01 b5 16 3c f4 6b bd 3c 20 4c d7 bc
       -0.13022347 0.009198428 0.023122765 -0.026281416
000290 36 09 16 3e 0b 84 93 3d da 21 49 3a 0c a8 04 be
       0.14651951 0.072029196 0.0007672586 -0.1295473
0002a0 90 9c 18 be 85 86 0a bc 4a 7b fe bd 21 3c e5 bd
       -0.14903474 -0.0084549235 -0.12425859 -0.11193109
0002b0 37 42 bf bd fa 4f 0e be 1d 37 13 be 93 db 13 be
       -0.09338801 -0.13897696 -0.14376493 -0.1443923
0002c0 03 fe de bc 4e bd 92 3d 00 7e d2 3d 04 c6 a2 bd
       -0.027220732 0.07165013 0.10277939 -0.07947925
0002d0 63 17 ce bd 3e 6b fa bd cb a3 e4 3b 04 91 04 be
       -0.100630544 -0.12227486 0.0069775335 -0.12945944
0002e0 49 42 e7 3d 8a 35 90 3d a8 3d ec 3d ef 1e 16 3d
       0.1129194 0.07041462 0.115351975 0.036650594
0002f0 79 68 fb bb 23 10 e8 3d 4e 09 8e bd 6e ba a2 bd
       -0.007672366 0.11331203 -0.069353685 -0.07945715
000300 b3 ad c9 3a 62 fe d9 bc 36 87 14 bd d9 42 f4 bd
       0.0015386849 -0.026610557 -0.03626176 -0.11926813
000310 d4 d6 af bd b9 11 91 bd 9a 45 be bd 2b 6d cc 3d
       -0.08585897 -0.070834585 -0.09290619 0.0998176
000320 81 5c f5 bd 38 c0 96 3d 01 b6 56 3d e0 a1 91 3d
       -0.11980534 0.073608816 0.052419666 0.07110953
000330 8a 2c 96 bd 12 1f 50 3d 21 89 cc 3d 46 87 58 bd
       -0.07332714 0.05081088 0.09987093 -0.05286338
000340 81 57 06 be f8 9f b9 bd f3 e9 13 3d 03 d9 c5 3d
       -0.13119318 -0.09063715 0.036111783 0.09660532
000350 07 08 1a 3c 94 b8 e5 3d de ce f4 bd d3 2c 76 3d
       0.009401328 0.11216846 -0.11953519 0.06010134
000360 bc 82 d5 bc 94 ac d8 bd 12 c2 13 be b8 59 b9 3d
       -0.026063316 -0.10579792 -0.144295 0.090503156
000370 34 4a b5 3d fb 65 07 3e 56 7a 90 bc b6 a3 ee 3d
       0.08852044 0.13222496 -0.01763646 0.11652319
000380 ad fb 15 3e 78 0e a6 3d 2a 5c a0 bc 28 40 0a be
       0.14646788 0.081082284 -0.019575197 -0.13501036
000390 a4 fa 65 3c cc 16 a8 bc b5 e6 01 be 97 21 b4 3d
       0.014036808 -0.020518683 -0.12685664 0.08795469
0003a0 de 35 8b bd ea c3 0a bb c7 89 4a 3d db f4 15 3e
       -0.06797384 -0.0021173903 0.0494478 0.14644186
0003b0 ec cf f2 3d 49 88 18 bd 65 24 c3 3c 71 b5 2c 3d
       0.11856064 -0.037239347 0.023821065 0.042165224
0003c0 eb 63 c3 bd 04 51 ff bd 3b 1f 87 bd a5 d5 ca 3d
       -0.09540542 -0.124666244 -0.065977536 0.09904031
0003d0 ff 1a 0a be 42 a4 01 3d fc ca b4 bd c0 b4 b5 bd
       -0.1348686 0.03165079 -0.08827779 -0.08872366
0003e0 7b 4c c5 3b 32 be 1c bd 4c 77 cc 3d 3e 79 8e bc
       0.00602108 -0.038267322 0.099836916 -0.017391797
0003f0 bf f3 a5 3d c8 0a 95 bd 30 0a dc bd 87 3c d5 bd
       0.081031315 -0.07277447 -0.107441306 -0.10411935

linear4.weight f4 [256, 14]
000000 2a a9 dd 3d ad ef 97 3d 33 2d ef 3d d8 8a de bd
       0.10823281 0.074187614 0.11678543 -0.10866326
000010 52 8e c9 3d fd f1 4c bd 34 4f 73 3d bb 82 66 bd
       0.098415986 -0.050035466 0.059401706 -0.056277018
000020 91 d8 33 3d f4 c4 d5 3a dc be d3 bd 47 c5 52 bc
       0.043907706 0.0016309307 -0.10339138 -0.012864417
000030 14 73 de bd a6 81 55 bd 02 8c 92 bd cc f4 ec bc
       -0.10861793 -0.052125596 -0.071556106 -0.028925322
000040 36 73 c6 bc bb a1 1a 39 df 18 fa bd 33 bd 0a 3d
       -0.024224859 0.00014746834 -0.12211775 0.03387184
000050 60 b0 01 3e bf ea a2 3d 8a 77 a2 bb 4a 93 b6 bd
       0.12664938 0.079549305 -0.004958098 -0.08914812
000060 fc d0 05 3e e6 19 cf 3d a1 58 b2 3d 5f 32 83 3c
       0.13068002 0.101123616 0.08708311 0.01601523
000070 39 3c 81 bd e4 5c 05 3e fb 49 f3 3d 2c 8a 57 bd
       -0.06310315 0.13023716 0.11879345 -0.052622005
000080 17 9c f5 3d d1 2d b3 3d ef 70 02 3e ee 1f aa 3d
       0.119926624 0.08748973 0.12738393 0.08306871
000090 62 cc ea 3d 3b 8f 80 bb 60 4d 3a bd c6 ec f0 3c
       0.11464764 -0.0039233244 -0.045483947 0.029409777
0000a0 5d 29 86 bd ae 34 7f 3c 8c 7f 62 bd 93 ed 7c bd
       -0.06550858 0.015576525 -0.05529742 -0.061750006
0000b0 c0 70 71 3d 98 59 87 3d 41 26 e9 bc 7f 1b 11 3e
       0.058945417 0.066088855 -0.028460624 0.14170645
0000c0 01 73 87 3d 74 e2 14 3d 89 e7 0e be 8b 71 8c bd
       0.06613732 0.036348775 -0.13955511 -0.06857594
0000d0 b2 73 5c bd 96 85 da bd c1 d8 05 bd 5d bf 35 bd
       -0.053821273 -0.10670011 -0.032677416 -0.04437195
0000e0 e7 2f c5 3d 30 dd 3b 3d c7 93 6c b9 6a c0 cd 3d
       0.09628277 0.045865238 -0.00022561765 0.10046466
0000f0 94 93 31 3d fa c3 87 bd 2d 3b 30 3d ea 2e ea 3d
       0.043353632 -0.066291764 0.043025184 0.114347294
000100 8b 73 14 be 30 00 7e 3d 80 1a 03 3e 55 9d b5 3d
       -0.14497201 0.062011898 0.12803078 0.08867899
000110 6a 5e 08 3e 22 33 e2 3d b0 ab b7 3d 1f 37 b5 3d
       0.13317266 0.11044909 0.08968294 0.08848404
000120 fb 62 27 3d be 9a 02 be 1c c9 dc 3d 74 99 31 bd
       0.04086588 -0.12754342 0.10780546 -0.043359235
000130 47 03 b5 3d 2f 7a ed bd 74 02 7c bd c0 be e1 3d
       0.08838516 -0.1159557 -0.061525777 0.11022711
000140 6c e2 c9 3d d0 c1 db 3c e5 c3 e4 3d c0 cf b9 bd
       0.0985764 0.026825815 0.111701764 -0.09072828
000150 50 50 f4 3d 7f 85 d9 bd b7 e0 ce 3d e6 3f ec 3b
       0.11929381 -0.106211655 0.10101455 0.0072097657
000160 93 cf 9e 3d ee 3f 77 bb f5 be ae bd de 81 9b 37
       0.077544354 -0.0037727314 -0.08532516 1.8537914e-05
000170 0c ee f9 3c 94 f4 8e 3d e6 09 c0 bd ae 46 09 3d
       0.030509017 0.06980243 -0.09376888 0.03351467
000180 aa b7 56 bd 26 94 87 3d 0a fd db 3d 6d 78 94 3b
       -0.05242125 0.06620054 0.10741623 0.0045309574
000190 7b d1 9e bd d2 9c 68 3d d0 64 09 3e 7d f9 07 3e
       -0.07754799 0.05679018 0.13417363 0.13278766
0001a0 c9 0a a8 3c 3d 8f c6 3d 44 9e 53 bd 32 c2 d2 bd
       0.020512955 0.09695289 -0.051664606 -0.10290946
0001b0 85 37 f0 bc ef c9 55 3d 45 e7 dd 3c 3d 36 a8 bd
       -0.029323349 0.052194532 0.027087817 -0.0821347
0001c0 96 20 0f be 10 ca 53 bd 83 76 cf bd 22 fa 80 3b
       -0.13977274 -0.051706374 -0.10130026 0.003936068
0001d0 71 60 ba 3d 20 b9 ff 3b be 6c ba 3d 83 6e ee bc
       0.09100426 0.007804051 0.09102772 -0.02910543
0001e0 5b 83 e8 bd 13 0c b5 bc 4c 56 02 3c 3d 01 55 bd
       -0.11353179 -0.022100484 0.007955145 -0.052003134
0001f0 6a 27 aa 3d 9b c1 0d 3e 15 d1 00 3e ba 1a 1a be
       0.08308299 0.13843386 0.12579758 -0.15049258
000200 ad ff 88 3d 2d 26 60 bd 60 a7 a0 3d 21 fb d2 bd
       0.06689391 -0.054723907 0.07844424 -0.10301805
000210 92 b3 ef 3d c5 7f 9f 3c c2 a3 0a bd 0b ab 88 3d
       0.11704172 0.019470105 -0.033847578 0.06673249
000220 3b a4 f2 bd 0a 8f b7 bd 67 5b db 3c fe 98 00 3e
       -0.11847731 -0.089628294 0.026776982 0.12558362
000230 9e 58 12 be c5 76 c0 3d 97 9d a3 bd a2 cb 8f 3d
       -0.14291617 0.093976535 -0.07989042 0.07021262
000240 ac a4 5b 3d d4 9c a8 3d 86 d9 81 bd cd 29 43 3d
       0.05362384 0.082330376 -0.063403174 0.047647286
000250 48 68 ea bc a3 1e b0 3d b4 7a fb bd 28 80 af bd
       -0.028614178 0.085995935 -0.12279263 -0.08569366
000260 5c 02 a1 bd e1 09 de 3d 01 f2 0e be 55 d2 3c 3d
       -0.07861778 0.10841728 -0.13959505 0.046099026
000270 c8 dc aa bc a8 b6 dd 3c 44 15 63 3c 1a e1 dd bd
       -0.02085723 0.027064636 0.013860051 -0.1083395
000280 43 4f ec bd d3 96 d2 bd 5b 31 80 3d 7e f7 88 bd
       -0.115385555 -0.10282674 0.06259414 -0.066878304
000290 7f c1 fd 3d 6c a4 cd 3c f0 c6 df 3d 17 48 0b be
       0.12390422 0.025102817 0.10926616 -0.13601719
0002a0 4b 74 0c 3e f6 c6 9f 3d 31 21 93 bd e2 ba 49 ba
       0.13716237 0.07801621 -0.07184065 -0.0007695389
0002b0 50 d3 7b 3d 66 45 0b 3d c0 5b c5 3d b0 ad 86 bd
       0.06148082 0.03400173 0.096366405 -0.06576097
0002c0 c6 46 f5 3d 5b b3 f0 3d 25 f5 c8 3d 13 65 5f bc
       0.119763896 0.11752959 0.098123826 -0.013634938
0002d0 00 7b 06 bd 3e 70 dd bd 8e e0 59 bd 38 4d 85 bd
       -0.032832146 -0.10812424 -0.053192668 -0.06508869
0002e0 2e 39 69 bd e9 79 c3 3d 0b 5d 0a be 23 7d d4 3c
       -0.056939296 0.09544737 -0.13512056 0.025938576
0002f0 4a f2 89 bd bb 6e 97 bc 38 77 a2 bb b0 98 db 3d
       -0.06735666 -0.018485418 -0.0049580596 0.10722482
000300 f4 f3 36 3d 38 2b de bd 3c 29 a4 3d 63 aa db bd
       0.044666246 -0.10848087 0.08015677 -0.10725858
000310 3b 90 85 3d 81 85 23 3c f9 60 52 3d 30 07 c1 bc
       0.065216504 0.00998056 0.05136201 -0.023562998
000320 e0 52 81 3b 73 8a d5 bd 06 07 ff 3d 37 75 9f bd
       0.003946647 -0.10426798 0.124525115 -0.07786029
000330 45 38 77 3d 2b 26 92 3d a8 6d 96 3d d7 82 02 be
       0.060356397 0.07136186 0.07345134 -0.12745224
000340 7c 2b d0 bd 46 af 22 3d 26 f1 9d 3d fa 0a c7 bd
       -0.10164544 0.039717935 0.07712011 -0.097188905
000350 92 c9 1d 3d 8e e9 f7 bd b1 30 41 3d 85 4a 8b 3d
       0.03852231 -0.12105094 0.047165576 0.06801323
000360 e8 81 e4 3d 41 5a 38 3d 87 76 7f bd 95 3d e8 3d
       0.1115759 0.045007948 -0.062368896 0.11339871
000370 8b 26 e8 3d ee 2e 6b 3d f5 a2 b0 3d 29 b2 b1 3d
       0.113354765 0.057417803 0.086248316 0.086765595
000380 44 8e 6f bc 82 d1 4e bc ad 64 e5 3d 54 f1 1f bc
       -0.014621321 -0.012623193 0.11200843 -0.009762127
000390 b8 9e 4f b9 97 19 f1 3b c9 0e be 3d a5 94 15 be
       -0.00019800186 0.007357787 0.09280164 -0.14607485
0003a0 d2 b2 db bd 2a 43 0a 3e df 1f a2 bc 67 8b 00 3e
       -0.10727467 0.13502184 -0.019790588 0.12553178
0003b0 b4 e2 ec bd 9a 38 4c bc 90 24 07 3d 14 8b 92 bd
       -0.11566678 -0.012464667 0.032993853 -0.07155433
0003c0 f0 6d e5 bd 10 09 11 be 5f 6d b8 bd ca 9b 00 3e
       -0.112026095 -0.14163613 -0.09005236 0.12559429
0003d0 83 7d 67 3d 92 ae 0c be 64 ae 82 3b b6 5f 16 3e
       0.05651618 -0.13738468 0.003988074 0.14684948
0003e0 c8 35 9d bd bd 79 37 bc f3 e8 18 be a6 21 01 3e
       -0.076762736 -0.011198458 -0.14932613 0.12610492
0003f0 c8 0a 0c 3e d4 d2 0a bd 83 fe dc bc 76 79 05 3e
       0.13675988 -0.033892468 -0.02697683 0.13034615
